{"class_name": "Functional", "config": {"name": "model_9", "layers": [{"class_name": "InputLayer", "config": {"batch_input_shape": [null, 100, 1], "dtype": "float32", "sparse": false, "ragged": false, "name": "input_163"}, "name": "input_163", "inbound_nodes": []}, {"class_name": "InputLayer", "config": {"batch_input_shape": [null, 100, 1], "dtype": "float32", "sparse": false, "ragged": false, "name": "input_164"}, "name": "input_164", "inbound_nodes": []}, {"class_name": "InputLayer", "config": {"batch_input_shape": [null, 100, 1], "dtype": "float32", "sparse": false, "ragged": false, "name": "input_165"}, "name": "input_165", "inbound_nodes": []}, {"class_name": "InputLayer", "config": {"batch_input_shape": [null, 100, 1], "dtype": "float32", "sparse": false, "ragged": false, "name": "input_166"}, "name": "input_166", "inbound_nodes": []}, {"class_name": "InputLayer", "config": {"batch_input_shape": [null, 100, 1], "dtype": "float32", "sparse": false, "ragged": false, "name": "input_167"}, "name": "input_167", "inbound_nodes": []}, {"class_name": "InputLayer", "config": {"batch_input_shape": [null, 100, 1], "dtype": "float32", "sparse": false, "ragged": false, "name": "input_168"}, "name": "input_168", "inbound_nodes": []}, {"class_name": "InputLayer", "config": {"batch_input_shape": [null, 100, 1], "dtype": "float32", "sparse": false, "ragged": false, "name": "input_169"}, "name": "input_169", "inbound_nodes": []}, {"class_name": "InputLayer", "config": {"batch_input_shape": [null, 100, 1], "dtype": "float32", "sparse": false, "ragged": false, "name": "input_170"}, "name": "input_170", "inbound_nodes": []}, {"class_name": "InputLayer", "config": {"batch_input_shape": [null, 100, 1], "dtype": "float32", "sparse": false, "ragged": false, "name": "input_171"}, "name": "input_171", "inbound_nodes": []}, {"class_name": "InputLayer", "config": {"batch_input_shape": [null, 100, 1], "dtype": "float32", "sparse": false, "ragged": false, "name": "input_172"}, "name": "input_172", "inbound_nodes": []}, {"class_name": "InputLayer", "config": {"batch_input_shape": [null, 100, 1], "dtype": "float32", "sparse": false, "ragged": false, "name": "input_173"}, "name": "input_173", "inbound_nodes": []}, {"class_name": "InputLayer", "config": {"batch_input_shape": [null, 100, 1], "dtype": "float32", "sparse": false, "ragged": false, "name": "input_174"}, "name": "input_174", "inbound_nodes": []}, {"class_name": "InputLayer", "config": {"batch_input_shape": [null, 100, 1], "dtype": "float32", "sparse": false, "ragged": false, "name": "input_175"}, "name": "input_175", "inbound_nodes": []}, {"class_name": "InputLayer", "config": {"batch_input_shape": [null, 100, 1], "dtype": "float32", "sparse": false, "ragged": false, "name": "input_176"}, "name": "input_176", "inbound_nodes": []}, {"class_name": "InputLayer", "config": {"batch_input_shape": [null, 100, 1], "dtype": "float32", "sparse": false, "ragged": false, "name": "input_177"}, "name": "input_177", "inbound_nodes": []}, {"class_name": "InputLayer", "config": {"batch_input_shape": [null, 100, 1], "dtype": "float32", "sparse": false, "ragged": false, "name": "input_178"}, "name": "input_178", "inbound_nodes": []}, {"class_name": "InputLayer", "config": {"batch_input_shape": [null, 100, 1], "dtype": "float32", "sparse": false, "ragged": false, "name": "input_179"}, "name": "input_179", "inbound_nodes": []}, {"class_name": "InputLayer", "config": {"batch_input_shape": [null, 100, 1], "dtype": "float32", "sparse": false, "ragged": false, "name": "input_180"}, "name": "input_180", "inbound_nodes": []}, {"class_name": "LayerNormalization", "config": {"name": "layer_normalization_324", "trainable": true, "dtype": "float32", "axis": [2], "epsilon": 0.001, "center": true, "scale": true, "beta_initializer": {"class_name": "Zeros", "config": {}}, "gamma_initializer": {"class_name": "Ones", "config": {}}, "beta_regularizer": null, "gamma_regularizer": null, "beta_constraint": null, "gamma_constraint": null}, "name": "layer_normalization_324", "inbound_nodes": [[["input_163", 0, 0, {}]]]}, {"class_name": "LayerNormalization", "config": {"name": "layer_normalization_326", "trainable": true, "dtype": "float32", "axis": [2], "epsilon": 0.001, "center": true, "scale": true, "beta_initializer": {"class_name": "Zeros", "config": {}}, "gamma_initializer": {"class_name": "Ones", "config": {}}, "beta_regularizer": null, "gamma_regularizer": null, "beta_constraint": null, "gamma_constraint": null}, "name": "layer_normalization_326", "inbound_nodes": [[["input_164", 0, 0, {}]]]}, {"class_name": "LayerNormalization", "config": {"name": "layer_normalization_328", "trainable": true, "dtype": "float32", "axis": [2], "epsilon": 0.001, "center": true, "scale": true, "beta_initializer": {"class_name": "Zeros", "config": {}}, "gamma_initializer": {"class_name": "Ones", "config": {}}, "beta_regularizer": null, "gamma_regularizer": null, "beta_constraint": null, "gamma_constraint": null}, "name": "layer_normalization_328", "inbound_nodes": [[["input_165", 0, 0, {}]]]}, {"class_name": "LayerNormalization", "config": {"name": "layer_normalization_330", "trainable": true, "dtype": "float32", "axis": [2], "epsilon": 0.001, "center": true, "scale": true, "beta_initializer": {"class_name": "Zeros", "config": {}}, "gamma_initializer": {"class_name": "Ones", "config": {}}, "beta_regularizer": null, "gamma_regularizer": null, "beta_constraint": null, "gamma_constraint": null}, "name": "layer_normalization_330", "inbound_nodes": [[["input_166", 0, 0, {}]]]}, {"class_name": "LayerNormalization", "config": {"name": "layer_normalization_332", "trainable": true, "dtype": "float32", "axis": [2], "epsilon": 0.001, "center": true, "scale": true, "beta_initializer": {"class_name": "Zeros", "config": {}}, "gamma_initializer": {"class_name": "Ones", "config": {}}, "beta_regularizer": null, "gamma_regularizer": null, "beta_constraint": null, "gamma_constraint": null}, "name": "layer_normalization_332", "inbound_nodes": [[["input_167", 0, 0, {}]]]}, {"class_name": "LayerNormalization", "config": {"name": "layer_normalization_334", "trainable": true, "dtype": "float32", "axis": [2], "epsilon": 0.001, "center": true, "scale": true, "beta_initializer": {"class_name": "Zeros", "config": {}}, "gamma_initializer": {"class_name": "Ones", "config": {}}, "beta_regularizer": null, "gamma_regularizer": null, "beta_constraint": null, "gamma_constraint": null}, "name": "layer_normalization_334", "inbound_nodes": [[["input_168", 0, 0, {}]]]}, {"class_name": "LayerNormalization", "config": {"name": "layer_normalization_336", "trainable": true, "dtype": "float32", "axis": [2], "epsilon": 0.001, "center": true, "scale": true, "beta_initializer": {"class_name": "Zeros", "config": {}}, "gamma_initializer": {"class_name": "Ones", "config": {}}, "beta_regularizer": null, "gamma_regularizer": null, "beta_constraint": null, "gamma_constraint": null}, "name": "layer_normalization_336", "inbound_nodes": [[["input_169", 0, 0, {}]]]}, {"class_name": "LayerNormalization", "config": {"name": "layer_normalization_338", "trainable": true, "dtype": "float32", "axis": [2], "epsilon": 0.001, "center": true, "scale": true, "beta_initializer": {"class_name": "Zeros", "config": {}}, "gamma_initializer": {"class_name": "Ones", "config": {}}, "beta_regularizer": null, "gamma_regularizer": null, "beta_constraint": null, "gamma_constraint": null}, "name": "layer_normalization_338", "inbound_nodes": [[["input_170", 0, 0, {}]]]}, {"class_name": "LayerNormalization", "config": {"name": "layer_normalization_340", "trainable": true, "dtype": "float32", "axis": [2], "epsilon": 0.001, "center": true, "scale": true, "beta_initializer": {"class_name": "Zeros", "config": {}}, "gamma_initializer": {"class_name": "Ones", "config": {}}, "beta_regularizer": null, "gamma_regularizer": null, "beta_constraint": null, "gamma_constraint": null}, "name": "layer_normalization_340", "inbound_nodes": [[["input_171", 0, 0, {}]]]}, {"class_name": "LayerNormalization", "config": {"name": "layer_normalization_342", "trainable": true, "dtype": "float32", "axis": [2], "epsilon": 0.001, "center": true, "scale": true, "beta_initializer": {"class_name": "Zeros", "config": {}}, "gamma_initializer": {"class_name": "Ones", "config": {}}, "beta_regularizer": null, "gamma_regularizer": null, "beta_constraint": null, "gamma_constraint": null}, "name": "layer_normalization_342", "inbound_nodes": [[["input_172", 0, 0, {}]]]}, {"class_name": "LayerNormalization", "config": {"name": "layer_normalization_344", "trainable": true, "dtype": "float32", "axis": [2], "epsilon": 0.001, "center": true, "scale": true, "beta_initializer": {"class_name": "Zeros", "config": {}}, "gamma_initializer": {"class_name": "Ones", "config": {}}, "beta_regularizer": null, "gamma_regularizer": null, "beta_constraint": null, "gamma_constraint": null}, "name": "layer_normalization_344", "inbound_nodes": [[["input_173", 0, 0, {}]]]}, {"class_name": "LayerNormalization", "config": {"name": "layer_normalization_346", "trainable": true, "dtype": "float32", "axis": [2], "epsilon": 0.001, "center": true, "scale": true, "beta_initializer": {"class_name": "Zeros", "config": {}}, "gamma_initializer": {"class_name": "Ones", "config": {}}, "beta_regularizer": null, "gamma_regularizer": null, "beta_constraint": null, "gamma_constraint": null}, "name": "layer_normalization_346", "inbound_nodes": [[["input_174", 0, 0, {}]]]}, {"class_name": "LayerNormalization", "config": {"name": "layer_normalization_348", "trainable": true, "dtype": "float32", "axis": [2], "epsilon": 0.001, "center": true, "scale": true, "beta_initializer": {"class_name": "Zeros", "config": {}}, "gamma_initializer": {"class_name": "Ones", "config": {}}, "beta_regularizer": null, "gamma_regularizer": null, "beta_constraint": null, "gamma_constraint": null}, "name": "layer_normalization_348", "inbound_nodes": [[["input_175", 0, 0, {}]]]}, {"class_name": "LayerNormalization", "config": {"name": "layer_normalization_350", "trainable": true, "dtype": "float32", "axis": [2], "epsilon": 0.001, "center": true, "scale": true, "beta_initializer": {"class_name": "Zeros", "config": {}}, "gamma_initializer": {"class_name": "Ones", "config": {}}, "beta_regularizer": null, "gamma_regularizer": null, "beta_constraint": null, "gamma_constraint": null}, "name": "layer_normalization_350", "inbound_nodes": [[["input_176", 0, 0, {}]]]}, {"class_name": "LayerNormalization", "config": {"name": "layer_normalization_352", "trainable": true, "dtype": "float32", "axis": [2], "epsilon": 0.001, "center": true, "scale": true, "beta_initializer": {"class_name": "Zeros", "config": {}}, "gamma_initializer": {"class_name": "Ones", "config": {}}, "beta_regularizer": null, "gamma_regularizer": null, "beta_constraint": null, "gamma_constraint": null}, "name": "layer_normalization_352", "inbound_nodes": [[["input_177", 0, 0, {}]]]}, {"class_name": "LayerNormalization", "config": {"name": "layer_normalization_354", "trainable": true, "dtype": "float32", "axis": [2], "epsilon": 0.001, "center": true, "scale": true, "beta_initializer": {"class_name": "Zeros", "config": {}}, "gamma_initializer": {"class_name": "Ones", "config": {}}, "beta_regularizer": null, "gamma_regularizer": null, "beta_constraint": null, "gamma_constraint": null}, "name": "layer_normalization_354", "inbound_nodes": [[["input_178", 0, 0, {}]]]}, {"class_name": "LayerNormalization", "config": {"name": "layer_normalization_356", "trainable": true, "dtype": "float32", "axis": [2], "epsilon": 0.001, "center": true, "scale": true, "beta_initializer": {"class_name": "Zeros", "config": {}}, "gamma_initializer": {"class_name": "Ones", "config": {}}, "beta_regularizer": null, "gamma_regularizer": null, "beta_constraint": null, "gamma_constraint": null}, "name": "layer_normalization_356", "inbound_nodes": [[["input_179", 0, 0, {}]]]}, {"class_name": "LayerNormalization", "config": {"name": "layer_normalization_358", "trainable": true, "dtype": "float32", "axis": [2], "epsilon": 0.001, "center": true, "scale": true, "beta_initializer": {"class_name": "Zeros", "config": {}}, "gamma_initializer": {"class_name": "Ones", "config": {}}, "beta_regularizer": null, "gamma_regularizer": null, "beta_constraint": null, "gamma_constraint": null}, "name": "layer_normalization_358", "inbound_nodes": [[["input_180", 0, 0, {}]]]}, {"class_name": "MultiHeadAttention", "config": {"name": "multi_head_attention_162", "trainable": true, "dtype": "float32", "num_heads": 2, "key_dim": 64, "value_dim": 64, "dropout": 0.1, "use_bias": true, "output_shape": null, "attention_axes": [1], "kernel_initializer": {"class_name": "GlorotUniform", "config": {"seed": null}}, "bias_initializer": {"class_name": "Zeros", "config": {}}, "kernel_regularizer": null, "bias_regularizer": null, "activity_regularizer": null, "kernel_constraint": null, "bias_constraint": null, "query_shape": [null, 100, 1], "key_shape": [null, 100, 1], "value_shape": [null, 100, 1]}, "name": "multi_head_attention_162", "inbound_nodes": [[["layer_normalization_324", 0, 0, {"value": ["layer_normalization_324", 0, 0]}]]]}, {"class_name": "MultiHeadAttention", "config": {"name": "multi_head_attention_163", "trainable": true, "dtype": "float32", "num_heads": 2, "key_dim": 64, "value_dim": 64, "dropout": 0.1, "use_bias": true, "output_shape": null, "attention_axes": [1], "kernel_initializer": {"class_name": "GlorotUniform", "config": {"seed": null}}, "bias_initializer": {"class_name": "Zeros", "config": {}}, "kernel_regularizer": null, "bias_regularizer": null, "activity_regularizer": null, "kernel_constraint": null, "bias_constraint": null, "query_shape": [null, 100, 1], "key_shape": [null, 100, 1], "value_shape": [null, 100, 1]}, "name": "multi_head_attention_163", "inbound_nodes": [[["layer_normalization_326", 0, 0, {"value": ["layer_normalization_326", 0, 0]}]]]}, {"class_name": "MultiHeadAttention", "config": {"name": "multi_head_attention_164", "trainable": true, "dtype": "float32", "num_heads": 2, "key_dim": 64, "value_dim": 64, "dropout": 0.1, "use_bias": true, "output_shape": null, "attention_axes": [1], "kernel_initializer": {"class_name": "GlorotUniform", "config": {"seed": null}}, "bias_initializer": {"class_name": "Zeros", "config": {}}, "kernel_regularizer": null, "bias_regularizer": null, "activity_regularizer": null, "kernel_constraint": null, "bias_constraint": null, "query_shape": [null, 100, 1], "key_shape": [null, 100, 1], "value_shape": [null, 100, 1]}, "name": "multi_head_attention_164", "inbound_nodes": [[["layer_normalization_328", 0, 0, {"value": ["layer_normalization_328", 0, 0]}]]]}, {"class_name": "MultiHeadAttention", "config": {"name": "multi_head_attention_165", "trainable": true, "dtype": "float32", "num_heads": 2, "key_dim": 64, "value_dim": 64, "dropout": 0.1, "use_bias": true, "output_shape": null, "attention_axes": [1], "kernel_initializer": {"class_name": "GlorotUniform", "config": {"seed": null}}, "bias_initializer": {"class_name": "Zeros", "config": {}}, "kernel_regularizer": null, "bias_regularizer": null, "activity_regularizer": null, "kernel_constraint": null, "bias_constraint": null, "query_shape": [null, 100, 1], "key_shape": [null, 100, 1], "value_shape": [null, 100, 1]}, "name": "multi_head_attention_165", "inbound_nodes": [[["layer_normalization_330", 0, 0, {"value": ["layer_normalization_330", 0, 0]}]]]}, {"class_name": "MultiHeadAttention", "config": {"name": "multi_head_attention_166", "trainable": true, "dtype": "float32", "num_heads": 2, "key_dim": 64, "value_dim": 64, "dropout": 0.1, "use_bias": true, "output_shape": null, "attention_axes": [1], "kernel_initializer": {"class_name": "GlorotUniform", "config": {"seed": null}}, "bias_initializer": {"class_name": "Zeros", "config": {}}, "kernel_regularizer": null, "bias_regularizer": null, "activity_regularizer": null, "kernel_constraint": null, "bias_constraint": null, "query_shape": [null, 100, 1], "key_shape": [null, 100, 1], "value_shape": [null, 100, 1]}, "name": "multi_head_attention_166", "inbound_nodes": [[["layer_normalization_332", 0, 0, {"value": ["layer_normalization_332", 0, 0]}]]]}, {"class_name": "MultiHeadAttention", "config": {"name": "multi_head_attention_167", "trainable": true, "dtype": "float32", "num_heads": 2, "key_dim": 64, "value_dim": 64, "dropout": 0.1, "use_bias": true, "output_shape": null, "attention_axes": [1], "kernel_initializer": {"class_name": "GlorotUniform", "config": {"seed": null}}, "bias_initializer": {"class_name": "Zeros", "config": {}}, "kernel_regularizer": null, "bias_regularizer": null, "activity_regularizer": null, "kernel_constraint": null, "bias_constraint": null, "query_shape": [null, 100, 1], "key_shape": [null, 100, 1], "value_shape": [null, 100, 1]}, "name": "multi_head_attention_167", "inbound_nodes": [[["layer_normalization_334", 0, 0, {"value": ["layer_normalization_334", 0, 0]}]]]}, {"class_name": "MultiHeadAttention", "config": {"name": "multi_head_attention_168", "trainable": true, "dtype": "float32", "num_heads": 2, "key_dim": 64, "value_dim": 64, "dropout": 0.1, "use_bias": true, "output_shape": null, "attention_axes": [1], "kernel_initializer": {"class_name": "GlorotUniform", "config": {"seed": null}}, "bias_initializer": {"class_name": "Zeros", "config": {}}, "kernel_regularizer": null, "bias_regularizer": null, "activity_regularizer": null, "kernel_constraint": null, "bias_constraint": null, "query_shape": [null, 100, 1], "key_shape": [null, 100, 1], "value_shape": [null, 100, 1]}, "name": "multi_head_attention_168", "inbound_nodes": [[["layer_normalization_336", 0, 0, {"value": ["layer_normalization_336", 0, 0]}]]]}, {"class_name": "MultiHeadAttention", "config": {"name": "multi_head_attention_169", "trainable": true, "dtype": "float32", "num_heads": 2, "key_dim": 64, "value_dim": 64, "dropout": 0.1, "use_bias": true, "output_shape": null, "attention_axes": [1], "kernel_initializer": {"class_name": "GlorotUniform", "config": {"seed": null}}, "bias_initializer": {"class_name": "Zeros", "config": {}}, "kernel_regularizer": null, "bias_regularizer": null, "activity_regularizer": null, "kernel_constraint": null, "bias_constraint": null, "query_shape": [null, 100, 1], "key_shape": [null, 100, 1], "value_shape": [null, 100, 1]}, "name": "multi_head_attention_169", "inbound_nodes": [[["layer_normalization_338", 0, 0, {"value": ["layer_normalization_338", 0, 0]}]]]}, {"class_name": "MultiHeadAttention", "config": {"name": "multi_head_attention_170", "trainable": true, "dtype": "float32", "num_heads": 2, "key_dim": 64, "value_dim": 64, "dropout": 0.1, "use_bias": true, "output_shape": null, "attention_axes": [1], "kernel_initializer": {"class_name": "GlorotUniform", "config": {"seed": null}}, "bias_initializer": {"class_name": "Zeros", "config": {}}, "kernel_regularizer": null, "bias_regularizer": null, "activity_regularizer": null, "kernel_constraint": null, "bias_constraint": null, "query_shape": [null, 100, 1], "key_shape": [null, 100, 1], "value_shape": [null, 100, 1]}, "name": "multi_head_attention_170", "inbound_nodes": [[["layer_normalization_340", 0, 0, {"value": ["layer_normalization_340", 0, 0]}]]]}, {"class_name": "MultiHeadAttention", "config": {"name": "multi_head_attention_171", "trainable": true, "dtype": "float32", "num_heads": 2, "key_dim": 64, "value_dim": 64, "dropout": 0.1, "use_bias": true, "output_shape": null, "attention_axes": [1], "kernel_initializer": {"class_name": "GlorotUniform", "config": {"seed": null}}, "bias_initializer": {"class_name": "Zeros", "config": {}}, "kernel_regularizer": null, "bias_regularizer": null, "activity_regularizer": null, "kernel_constraint": null, "bias_constraint": null, "query_shape": [null, 100, 1], "key_shape": [null, 100, 1], "value_shape": [null, 100, 1]}, "name": "multi_head_attention_171", "inbound_nodes": [[["layer_normalization_342", 0, 0, {"value": ["layer_normalization_342", 0, 0]}]]]}, {"class_name": "MultiHeadAttention", "config": {"name": "multi_head_attention_172", "trainable": true, "dtype": "float32", "num_heads": 2, "key_dim": 64, "value_dim": 64, "dropout": 0.1, "use_bias": true, "output_shape": null, "attention_axes": [1], "kernel_initializer": {"class_name": "GlorotUniform", "config": {"seed": null}}, "bias_initializer": {"class_name": "Zeros", "config": {}}, "kernel_regularizer": null, "bias_regularizer": null, "activity_regularizer": null, "kernel_constraint": null, "bias_constraint": null, "query_shape": [null, 100, 1], "key_shape": [null, 100, 1], "value_shape": [null, 100, 1]}, "name": "multi_head_attention_172", "inbound_nodes": [[["layer_normalization_344", 0, 0, {"value": ["layer_normalization_344", 0, 0]}]]]}, {"class_name": "MultiHeadAttention", "config": {"name": "multi_head_attention_173", "trainable": true, "dtype": "float32", "num_heads": 2, "key_dim": 64, "value_dim": 64, "dropout": 0.1, "use_bias": true, "output_shape": null, "attention_axes": [1], "kernel_initializer": {"class_name": "GlorotUniform", "config": {"seed": null}}, "bias_initializer": {"class_name": "Zeros", "config": {}}, "kernel_regularizer": null, "bias_regularizer": null, "activity_regularizer": null, "kernel_constraint": null, "bias_constraint": null, "query_shape": [null, 100, 1], "key_shape": [null, 100, 1], "value_shape": [null, 100, 1]}, "name": "multi_head_attention_173", "inbound_nodes": [[["layer_normalization_346", 0, 0, {"value": ["layer_normalization_346", 0, 0]}]]]}, {"class_name": "MultiHeadAttention", "config": {"name": "multi_head_attention_174", "trainable": true, "dtype": "float32", "num_heads": 2, "key_dim": 64, "value_dim": 64, "dropout": 0.1, "use_bias": true, "output_shape": null, "attention_axes": [1], "kernel_initializer": {"class_name": "GlorotUniform", "config": {"seed": null}}, "bias_initializer": {"class_name": "Zeros", "config": {}}, "kernel_regularizer": null, "bias_regularizer": null, "activity_regularizer": null, "kernel_constraint": null, "bias_constraint": null, "query_shape": [null, 100, 1], "key_shape": [null, 100, 1], "value_shape": [null, 100, 1]}, "name": "multi_head_attention_174", "inbound_nodes": [[["layer_normalization_348", 0, 0, {"value": ["layer_normalization_348", 0, 0]}]]]}, {"class_name": "MultiHeadAttention", "config": {"name": "multi_head_attention_175", "trainable": true, "dtype": "float32", "num_heads": 2, "key_dim": 64, "value_dim": 64, "dropout": 0.1, "use_bias": true, "output_shape": null, "attention_axes": [1], "kernel_initializer": {"class_name": "GlorotUniform", "config": {"seed": null}}, "bias_initializer": {"class_name": "Zeros", "config": {}}, "kernel_regularizer": null, "bias_regularizer": null, "activity_regularizer": null, "kernel_constraint": null, "bias_constraint": null, "query_shape": [null, 100, 1], "key_shape": [null, 100, 1], "value_shape": [null, 100, 1]}, "name": "multi_head_attention_175", "inbound_nodes": [[["layer_normalization_350", 0, 0, {"value": ["layer_normalization_350", 0, 0]}]]]}, {"class_name": "MultiHeadAttention", "config": {"name": "multi_head_attention_176", "trainable": true, "dtype": "float32", "num_heads": 2, "key_dim": 64, "value_dim": 64, "dropout": 0.1, "use_bias": true, "output_shape": null, "attention_axes": [1], "kernel_initializer": {"class_name": "GlorotUniform", "config": {"seed": null}}, "bias_initializer": {"class_name": "Zeros", "config": {}}, "kernel_regularizer": null, "bias_regularizer": null, "activity_regularizer": null, "kernel_constraint": null, "bias_constraint": null, "query_shape": [null, 100, 1], "key_shape": [null, 100, 1], "value_shape": [null, 100, 1]}, "name": "multi_head_attention_176", "inbound_nodes": [[["layer_normalization_352", 0, 0, {"value": ["layer_normalization_352", 0, 0]}]]]}, {"class_name": "MultiHeadAttention", "config": {"name": "multi_head_attention_177", "trainable": true, "dtype": "float32", "num_heads": 2, "key_dim": 64, "value_dim": 64, "dropout": 0.1, "use_bias": true, "output_shape": null, "attention_axes": [1], "kernel_initializer": {"class_name": "GlorotUniform", "config": {"seed": null}}, "bias_initializer": {"class_name": "Zeros", "config": {}}, "kernel_regularizer": null, "bias_regularizer": null, "activity_regularizer": null, "kernel_constraint": null, "bias_constraint": null, "query_shape": [null, 100, 1], "key_shape": [null, 100, 1], "value_shape": [null, 100, 1]}, "name": "multi_head_attention_177", "inbound_nodes": [[["layer_normalization_354", 0, 0, {"value": ["layer_normalization_354", 0, 0]}]]]}, {"class_name": "MultiHeadAttention", "config": {"name": "multi_head_attention_178", "trainable": true, "dtype": "float32", "num_heads": 2, "key_dim": 64, "value_dim": 64, "dropout": 0.1, "use_bias": true, "output_shape": null, "attention_axes": [1], "kernel_initializer": {"class_name": "GlorotUniform", "config": {"seed": null}}, "bias_initializer": {"class_name": "Zeros", "config": {}}, "kernel_regularizer": null, "bias_regularizer": null, "activity_regularizer": null, "kernel_constraint": null, "bias_constraint": null, "query_shape": [null, 100, 1], "key_shape": [null, 100, 1], "value_shape": [null, 100, 1]}, "name": "multi_head_attention_178", "inbound_nodes": [[["layer_normalization_356", 0, 0, {"value": ["layer_normalization_356", 0, 0]}]]]}, {"class_name": "MultiHeadAttention", "config": {"name": "multi_head_attention_179", "trainable": true, "dtype": "float32", "num_heads": 2, "key_dim": 64, "value_dim": 64, "dropout": 0.1, "use_bias": true, "output_shape": null, "attention_axes": [1], "kernel_initializer": {"class_name": "GlorotUniform", "config": {"seed": null}}, "bias_initializer": {"class_name": "Zeros", "config": {}}, "kernel_regularizer": null, "bias_regularizer": null, "activity_regularizer": null, "kernel_constraint": null, "bias_constraint": null, "query_shape": [null, 100, 1], "key_shape": [null, 100, 1], "value_shape": [null, 100, 1]}, "name": "multi_head_attention_179", "inbound_nodes": [[["layer_normalization_358", 0, 0, {"value": ["layer_normalization_358", 0, 0]}]]]}, {"class_name": "Add", "config": {"name": "add_324", "trainable": true, "dtype": "float32"}, "name": "add_324", "inbound_nodes": [[["input_163", 0, 0, {}], ["multi_head_attention_162", 0, 0, {}]]]}, {"class_name": "Add", "config": {"name": "add_326", "trainable": true, "dtype": "float32"}, "name": "add_326", "inbound_nodes": [[["input_164", 0, 0, {}], ["multi_head_attention_163", 0, 0, {}]]]}, {"class_name": "Add", "config": {"name": "add_328", "trainable": true, "dtype": "float32"}, "name": "add_328", "inbound_nodes": [[["input_165", 0, 0, {}], ["multi_head_attention_164", 0, 0, {}]]]}, {"class_name": "Add", "config": {"name": "add_330", "trainable": true, "dtype": "float32"}, "name": "add_330", "inbound_nodes": [[["input_166", 0, 0, {}], ["multi_head_attention_165", 0, 0, {}]]]}, {"class_name": "Add", "config": {"name": "add_332", "trainable": true, "dtype": "float32"}, "name": "add_332", "inbound_nodes": [[["input_167", 0, 0, {}], ["multi_head_attention_166", 0, 0, {}]]]}, {"class_name": "Add", "config": {"name": "add_334", "trainable": true, "dtype": "float32"}, "name": "add_334", "inbound_nodes": [[["input_168", 0, 0, {}], ["multi_head_attention_167", 0, 0, {}]]]}, {"class_name": "Add", "config": {"name": "add_336", "trainable": true, "dtype": "float32"}, "name": "add_336", "inbound_nodes": [[["input_169", 0, 0, {}], ["multi_head_attention_168", 0, 0, {}]]]}, {"class_name": "Add", "config": {"name": "add_338", "trainable": true, "dtype": "float32"}, "name": "add_338", "inbound_nodes": [[["input_170", 0, 0, {}], ["multi_head_attention_169", 0, 0, {}]]]}, {"class_name": "Add", "config": {"name": "add_340", "trainable": true, "dtype": "float32"}, "name": "add_340", "inbound_nodes": [[["input_171", 0, 0, {}], ["multi_head_attention_170", 0, 0, {}]]]}, {"class_name": "Add", "config": {"name": "add_342", "trainable": true, "dtype": "float32"}, "name": "add_342", "inbound_nodes": [[["input_172", 0, 0, {}], ["multi_head_attention_171", 0, 0, {}]]]}, {"class_name": "Add", "config": {"name": "add_344", "trainable": true, "dtype": "float32"}, "name": "add_344", "inbound_nodes": [[["input_173", 0, 0, {}], ["multi_head_attention_172", 0, 0, {}]]]}, {"class_name": "Add", "config": {"name": "add_346", "trainable": true, "dtype": "float32"}, "name": "add_346", "inbound_nodes": [[["input_174", 0, 0, {}], ["multi_head_attention_173", 0, 0, {}]]]}, {"class_name": "Add", "config": {"name": "add_348", "trainable": true, "dtype": "float32"}, "name": "add_348", "inbound_nodes": [[["input_175", 0, 0, {}], ["multi_head_attention_174", 0, 0, {}]]]}, {"class_name": "Add", "config": {"name": "add_350", "trainable": true, "dtype": "float32"}, "name": "add_350", "inbound_nodes": [[["input_176", 0, 0, {}], ["multi_head_attention_175", 0, 0, {}]]]}, {"class_name": "Add", "config": {"name": "add_352", "trainable": true, "dtype": "float32"}, "name": "add_352", "inbound_nodes": [[["input_177", 0, 0, {}], ["multi_head_attention_176", 0, 0, {}]]]}, {"class_name": "Add", "config": {"name": "add_354", "trainable": true, "dtype": "float32"}, "name": "add_354", "inbound_nodes": [[["input_178", 0, 0, {}], ["multi_head_attention_177", 0, 0, {}]]]}, {"class_name": "Add", "config": {"name": "add_356", "trainable": true, "dtype": "float32"}, "name": "add_356", "inbound_nodes": [[["input_179", 0, 0, {}], ["multi_head_attention_178", 0, 0, {}]]]}, {"class_name": "Add", "config": {"name": "add_358", "trainable": true, "dtype": "float32"}, "name": "add_358", "inbound_nodes": [[["input_180", 0, 0, {}], ["multi_head_attention_179", 0, 0, {}]]]}, {"class_name": "LayerNormalization", "config": {"name": "layer_normalization_325", "trainable": true, "dtype": "float32", "axis": [2], "epsilon": 0.001, "center": true, "scale": true, "beta_initializer": {"class_name": "Zeros", "config": {}}, "gamma_initializer": {"class_name": "Ones", "config": {}}, "beta_regularizer": null, "gamma_regularizer": null, "beta_constraint": null, "gamma_constraint": null}, "name": "layer_normalization_325", "inbound_nodes": [[["add_324", 0, 0, {}]]]}, {"class_name": "LayerNormalization", "config": {"name": "layer_normalization_327", "trainable": true, "dtype": "float32", "axis": [2], "epsilon": 0.001, "center": true, "scale": true, "beta_initializer": {"class_name": "Zeros", "config": {}}, "gamma_initializer": {"class_name": "Ones", "config": {}}, "beta_regularizer": null, "gamma_regularizer": null, "beta_constraint": null, "gamma_constraint": null}, "name": "layer_normalization_327", "inbound_nodes": [[["add_326", 0, 0, {}]]]}, {"class_name": "LayerNormalization", "config": {"name": "layer_normalization_329", "trainable": true, "dtype": "float32", "axis": [2], "epsilon": 0.001, "center": true, "scale": true, "beta_initializer": {"class_name": "Zeros", "config": {}}, "gamma_initializer": {"class_name": "Ones", "config": {}}, "beta_regularizer": null, "gamma_regularizer": null, "beta_constraint": null, "gamma_constraint": null}, "name": "layer_normalization_329", "inbound_nodes": [[["add_328", 0, 0, {}]]]}, {"class_name": "LayerNormalization", "config": {"name": "layer_normalization_331", "trainable": true, "dtype": "float32", "axis": [2], "epsilon": 0.001, "center": true, "scale": true, "beta_initializer": {"class_name": "Zeros", "config": {}}, "gamma_initializer": {"class_name": "Ones", "config": {}}, "beta_regularizer": null, "gamma_regularizer": null, "beta_constraint": null, "gamma_constraint": null}, "name": "layer_normalization_331", "inbound_nodes": [[["add_330", 0, 0, {}]]]}, {"class_name": "LayerNormalization", "config": {"name": "layer_normalization_333", "trainable": true, "dtype": "float32", "axis": [2], "epsilon": 0.001, "center": true, "scale": true, "beta_initializer": {"class_name": "Zeros", "config": {}}, "gamma_initializer": {"class_name": "Ones", "config": {}}, "beta_regularizer": null, "gamma_regularizer": null, "beta_constraint": null, "gamma_constraint": null}, "name": "layer_normalization_333", "inbound_nodes": [[["add_332", 0, 0, {}]]]}, {"class_name": "LayerNormalization", "config": {"name": "layer_normalization_335", "trainable": true, "dtype": "float32", "axis": [2], "epsilon": 0.001, "center": true, "scale": true, "beta_initializer": {"class_name": "Zeros", "config": {}}, "gamma_initializer": {"class_name": "Ones", "config": {}}, "beta_regularizer": null, "gamma_regularizer": null, "beta_constraint": null, "gamma_constraint": null}, "name": "layer_normalization_335", "inbound_nodes": [[["add_334", 0, 0, {}]]]}, {"class_name": "LayerNormalization", "config": {"name": "layer_normalization_337", "trainable": true, "dtype": "float32", "axis": [2], "epsilon": 0.001, "center": true, "scale": true, "beta_initializer": {"class_name": "Zeros", "config": {}}, "gamma_initializer": {"class_name": "Ones", "config": {}}, "beta_regularizer": null, "gamma_regularizer": null, "beta_constraint": null, "gamma_constraint": null}, "name": "layer_normalization_337", "inbound_nodes": [[["add_336", 0, 0, {}]]]}, {"class_name": "LayerNormalization", "config": {"name": "layer_normalization_339", "trainable": true, "dtype": "float32", "axis": [2], "epsilon": 0.001, "center": true, "scale": true, "beta_initializer": {"class_name": "Zeros", "config": {}}, "gamma_initializer": {"class_name": "Ones", "config": {}}, "beta_regularizer": null, "gamma_regularizer": null, "beta_constraint": null, "gamma_constraint": null}, "name": "layer_normalization_339", "inbound_nodes": [[["add_338", 0, 0, {}]]]}, {"class_name": "LayerNormalization", "config": {"name": "layer_normalization_341", "trainable": true, "dtype": "float32", "axis": [2], "epsilon": 0.001, "center": true, "scale": true, "beta_initializer": {"class_name": "Zeros", "config": {}}, "gamma_initializer": {"class_name": "Ones", "config": {}}, "beta_regularizer": null, "gamma_regularizer": null, "beta_constraint": null, "gamma_constraint": null}, "name": "layer_normalization_341", "inbound_nodes": [[["add_340", 0, 0, {}]]]}, {"class_name": "LayerNormalization", "config": {"name": "layer_normalization_343", "trainable": true, "dtype": "float32", "axis": [2], "epsilon": 0.001, "center": true, "scale": true, "beta_initializer": {"class_name": "Zeros", "config": {}}, "gamma_initializer": {"class_name": "Ones", "config": {}}, "beta_regularizer": null, "gamma_regularizer": null, "beta_constraint": null, "gamma_constraint": null}, "name": "layer_normalization_343", "inbound_nodes": [[["add_342", 0, 0, {}]]]}, {"class_name": "LayerNormalization", "config": {"name": "layer_normalization_345", "trainable": true, "dtype": "float32", "axis": [2], "epsilon": 0.001, "center": true, "scale": true, "beta_initializer": {"class_name": "Zeros", "config": {}}, "gamma_initializer": {"class_name": "Ones", "config": {}}, "beta_regularizer": null, "gamma_regularizer": null, "beta_constraint": null, "gamma_constraint": null}, "name": "layer_normalization_345", "inbound_nodes": [[["add_344", 0, 0, {}]]]}, {"class_name": "LayerNormalization", "config": {"name": "layer_normalization_347", "trainable": true, "dtype": "float32", "axis": [2], "epsilon": 0.001, "center": true, "scale": true, "beta_initializer": {"class_name": "Zeros", "config": {}}, "gamma_initializer": {"class_name": "Ones", "config": {}}, "beta_regularizer": null, "gamma_regularizer": null, "beta_constraint": null, "gamma_constraint": null}, "name": "layer_normalization_347", "inbound_nodes": [[["add_346", 0, 0, {}]]]}, {"class_name": "LayerNormalization", "config": {"name": "layer_normalization_349", "trainable": true, "dtype": "float32", "axis": [2], "epsilon": 0.001, "center": true, "scale": true, "beta_initializer": {"class_name": "Zeros", "config": {}}, "gamma_initializer": {"class_name": "Ones", "config": {}}, "beta_regularizer": null, "gamma_regularizer": null, "beta_constraint": null, "gamma_constraint": null}, "name": "layer_normalization_349", "inbound_nodes": [[["add_348", 0, 0, {}]]]}, {"class_name": "LayerNormalization", "config": {"name": "layer_normalization_351", "trainable": true, "dtype": "float32", "axis": [2], "epsilon": 0.001, "center": true, "scale": true, "beta_initializer": {"class_name": "Zeros", "config": {}}, "gamma_initializer": {"class_name": "Ones", "config": {}}, "beta_regularizer": null, "gamma_regularizer": null, "beta_constraint": null, "gamma_constraint": null}, "name": "layer_normalization_351", "inbound_nodes": [[["add_350", 0, 0, {}]]]}, {"class_name": "LayerNormalization", "config": {"name": "layer_normalization_353", "trainable": true, "dtype": "float32", "axis": [2], "epsilon": 0.001, "center": true, "scale": true, "beta_initializer": {"class_name": "Zeros", "config": {}}, "gamma_initializer": {"class_name": "Ones", "config": {}}, "beta_regularizer": null, "gamma_regularizer": null, "beta_constraint": null, "gamma_constraint": null}, "name": "layer_normalization_353", "inbound_nodes": [[["add_352", 0, 0, {}]]]}, {"class_name": "LayerNormalization", "config": {"name": "layer_normalization_355", "trainable": true, "dtype": "float32", "axis": [2], "epsilon": 0.001, "center": true, "scale": true, "beta_initializer": {"class_name": "Zeros", "config": {}}, "gamma_initializer": {"class_name": "Ones", "config": {}}, "beta_regularizer": null, "gamma_regularizer": null, "beta_constraint": null, "gamma_constraint": null}, "name": "layer_normalization_355", "inbound_nodes": [[["add_354", 0, 0, {}]]]}, {"class_name": "LayerNormalization", "config": {"name": "layer_normalization_357", "trainable": true, "dtype": "float32", "axis": [2], "epsilon": 0.001, "center": true, "scale": true, "beta_initializer": {"class_name": "Zeros", "config": {}}, "gamma_initializer": {"class_name": "Ones", "config": {}}, "beta_regularizer": null, "gamma_regularizer": null, "beta_constraint": null, "gamma_constraint": null}, "name": "layer_normalization_357", "inbound_nodes": [[["add_356", 0, 0, {}]]]}, {"class_name": "LayerNormalization", "config": {"name": "layer_normalization_359", "trainable": true, "dtype": "float32", "axis": [2], "epsilon": 0.001, "center": true, "scale": true, "beta_initializer": {"class_name": "Zeros", "config": {}}, "gamma_initializer": {"class_name": "Ones", "config": {}}, "beta_regularizer": null, "gamma_regularizer": null, "beta_constraint": null, "gamma_constraint": null}, "name": "layer_normalization_359", "inbound_nodes": [[["add_358", 0, 0, {}]]]}, {"class_name": "Dense", "config": {"name": "dense_513", "trainable": true, "dtype": "float32", "units": 128, "activation": "relu", "use_bias": true, "kernel_initializer": {"class_name": "GlorotUniform", "config": {"seed": null}}, "bias_initializer": {"class_name": "Zeros", "config": {}}, "kernel_regularizer": {"class_name": "L2", "config": {"l2": 0.0010000000474974513}}, "bias_regularizer": null, "activity_regularizer": null, "kernel_constraint": null, "bias_constraint": null}, "name": "dense_513", "inbound_nodes": [[["layer_normalization_325", 0, 0, {}]]]}, {"class_name": "Dense", "config": {"name": "dense_516", "trainable": true, "dtype": "float32", "units": 128, "activation": "relu", "use_bias": true, "kernel_initializer": {"class_name": "GlorotUniform", "config": {"seed": null}}, "bias_initializer": {"class_name": "Zeros", "config": {}}, "kernel_regularizer": {"class_name": "L2", "config": {"l2": 0.0010000000474974513}}, "bias_regularizer": null, "activity_regularizer": null, "kernel_constraint": null, "bias_constraint": null}, "name": "dense_516", "inbound_nodes": [[["layer_normalization_327", 0, 0, {}]]]}, {"class_name": "Dense", "config": {"name": "dense_519", "trainable": true, "dtype": "float32", "units": 128, "activation": "relu", "use_bias": true, "kernel_initializer": {"class_name": "GlorotUniform", "config": {"seed": null}}, "bias_initializer": {"class_name": "Zeros", "config": {}}, "kernel_regularizer": {"class_name": "L2", "config": {"l2": 0.0010000000474974513}}, "bias_regularizer": null, "activity_regularizer": null, "kernel_constraint": null, "bias_constraint": null}, "name": "dense_519", "inbound_nodes": [[["layer_normalization_329", 0, 0, {}]]]}, {"class_name": "Dense", "config": {"name": "dense_522", "trainable": true, "dtype": "float32", "units": 128, "activation": "relu", "use_bias": true, "kernel_initializer": {"class_name": "GlorotUniform", "config": {"seed": null}}, "bias_initializer": {"class_name": "Zeros", "config": {}}, "kernel_regularizer": {"class_name": "L2", "config": {"l2": 0.0010000000474974513}}, "bias_regularizer": null, "activity_regularizer": null, "kernel_constraint": null, "bias_constraint": null}, "name": "dense_522", "inbound_nodes": [[["layer_normalization_331", 0, 0, {}]]]}, {"class_name": "Dense", "config": {"name": "dense_525", "trainable": true, "dtype": "float32", "units": 128, "activation": "relu", "use_bias": true, "kernel_initializer": {"class_name": "GlorotUniform", "config": {"seed": null}}, "bias_initializer": {"class_name": "Zeros", "config": {}}, "kernel_regularizer": {"class_name": "L2", "config": {"l2": 0.0010000000474974513}}, "bias_regularizer": null, "activity_regularizer": null, "kernel_constraint": null, "bias_constraint": null}, "name": "dense_525", "inbound_nodes": [[["layer_normalization_333", 0, 0, {}]]]}, {"class_name": "Dense", "config": {"name": "dense_528", "trainable": true, "dtype": "float32", "units": 128, "activation": "relu", "use_bias": true, "kernel_initializer": {"class_name": "GlorotUniform", "config": {"seed": null}}, "bias_initializer": {"class_name": "Zeros", "config": {}}, "kernel_regularizer": {"class_name": "L2", "config": {"l2": 0.0010000000474974513}}, "bias_regularizer": null, "activity_regularizer": null, "kernel_constraint": null, "bias_constraint": null}, "name": "dense_528", "inbound_nodes": [[["layer_normalization_335", 0, 0, {}]]]}, {"class_name": "Dense", "config": {"name": "dense_531", "trainable": true, "dtype": "float32", "units": 128, "activation": "relu", "use_bias": true, "kernel_initializer": {"class_name": "GlorotUniform", "config": {"seed": null}}, "bias_initializer": {"class_name": "Zeros", "config": {}}, "kernel_regularizer": {"class_name": "L2", "config": {"l2": 0.0010000000474974513}}, "bias_regularizer": null, "activity_regularizer": null, "kernel_constraint": null, "bias_constraint": null}, "name": "dense_531", "inbound_nodes": [[["layer_normalization_337", 0, 0, {}]]]}, {"class_name": "Dense", "config": {"name": "dense_534", "trainable": true, "dtype": "float32", "units": 128, "activation": "relu", "use_bias": true, "kernel_initializer": {"class_name": "GlorotUniform", "config": {"seed": null}}, "bias_initializer": {"class_name": "Zeros", "config": {}}, "kernel_regularizer": {"class_name": "L2", "config": {"l2": 0.0010000000474974513}}, "bias_regularizer": null, "activity_regularizer": null, "kernel_constraint": null, "bias_constraint": null}, "name": "dense_534", "inbound_nodes": [[["layer_normalization_339", 0, 0, {}]]]}, {"class_name": "Dense", "config": {"name": "dense_537", "trainable": true, "dtype": "float32", "units": 128, "activation": "relu", "use_bias": true, "kernel_initializer": {"class_name": "GlorotUniform", "config": {"seed": null}}, "bias_initializer": {"class_name": "Zeros", "config": {}}, "kernel_regularizer": {"class_name": "L2", "config": {"l2": 0.0010000000474974513}}, "bias_regularizer": null, "activity_regularizer": null, "kernel_constraint": null, "bias_constraint": null}, "name": "dense_537", "inbound_nodes": [[["layer_normalization_341", 0, 0, {}]]]}, {"class_name": "Dense", "config": {"name": "dense_540", "trainable": true, "dtype": "float32", "units": 128, "activation": "relu", "use_bias": true, "kernel_initializer": {"class_name": "GlorotUniform", "config": {"seed": null}}, "bias_initializer": {"class_name": "Zeros", "config": {}}, "kernel_regularizer": {"class_name": "L2", "config": {"l2": 0.0010000000474974513}}, "bias_regularizer": null, "activity_regularizer": null, "kernel_constraint": null, "bias_constraint": null}, "name": "dense_540", "inbound_nodes": [[["layer_normalization_343", 0, 0, {}]]]}, {"class_name": "Dense", "config": {"name": "dense_543", "trainable": true, "dtype": "float32", "units": 128, "activation": "relu", "use_bias": true, "kernel_initializer": {"class_name": "GlorotUniform", "config": {"seed": null}}, "bias_initializer": {"class_name": "Zeros", "config": {}}, "kernel_regularizer": {"class_name": "L2", "config": {"l2": 0.0010000000474974513}}, "bias_regularizer": null, "activity_regularizer": null, "kernel_constraint": null, "bias_constraint": null}, "name": "dense_543", "inbound_nodes": [[["layer_normalization_345", 0, 0, {}]]]}, {"class_name": "Dense", "config": {"name": "dense_546", "trainable": true, "dtype": "float32", "units": 128, "activation": "relu", "use_bias": true, "kernel_initializer": {"class_name": "GlorotUniform", "config": {"seed": null}}, "bias_initializer": {"class_name": "Zeros", "config": {}}, "kernel_regularizer": {"class_name": "L2", "config": {"l2": 0.0010000000474974513}}, "bias_regularizer": null, "activity_regularizer": null, "kernel_constraint": null, "bias_constraint": null}, "name": "dense_546", "inbound_nodes": [[["layer_normalization_347", 0, 0, {}]]]}, {"class_name": "Dense", "config": {"name": "dense_549", "trainable": true, "dtype": "float32", "units": 128, "activation": "relu", "use_bias": true, "kernel_initializer": {"class_name": "GlorotUniform", "config": {"seed": null}}, "bias_initializer": {"class_name": "Zeros", "config": {}}, "kernel_regularizer": {"class_name": "L2", "config": {"l2": 0.0010000000474974513}}, "bias_regularizer": null, "activity_regularizer": null, "kernel_constraint": null, "bias_constraint": null}, "name": "dense_549", "inbound_nodes": [[["layer_normalization_349", 0, 0, {}]]]}, {"class_name": "Dense", "config": {"name": "dense_552", "trainable": true, "dtype": "float32", "units": 128, "activation": "relu", "use_bias": true, "kernel_initializer": {"class_name": "GlorotUniform", "config": {"seed": null}}, "bias_initializer": {"class_name": "Zeros", "config": {}}, "kernel_regularizer": {"class_name": "L2", "config": {"l2": 0.0010000000474974513}}, "bias_regularizer": null, "activity_regularizer": null, "kernel_constraint": null, "bias_constraint": null}, "name": "dense_552", "inbound_nodes": [[["layer_normalization_351", 0, 0, {}]]]}, {"class_name": "Dense", "config": {"name": "dense_555", "trainable": true, "dtype": "float32", "units": 128, "activation": "relu", "use_bias": true, "kernel_initializer": {"class_name": "GlorotUniform", "config": {"seed": null}}, "bias_initializer": {"class_name": "Zeros", "config": {}}, "kernel_regularizer": {"class_name": "L2", "config": {"l2": 0.0010000000474974513}}, "bias_regularizer": null, "activity_regularizer": null, "kernel_constraint": null, "bias_constraint": null}, "name": "dense_555", "inbound_nodes": [[["layer_normalization_353", 0, 0, {}]]]}, {"class_name": "Dense", "config": {"name": "dense_558", "trainable": true, "dtype": "float32", "units": 128, "activation": "relu", "use_bias": true, "kernel_initializer": {"class_name": "GlorotUniform", "config": {"seed": null}}, "bias_initializer": {"class_name": "Zeros", "config": {}}, "kernel_regularizer": {"class_name": "L2", "config": {"l2": 0.0010000000474974513}}, "bias_regularizer": null, "activity_regularizer": null, "kernel_constraint": null, "bias_constraint": null}, "name": "dense_558", "inbound_nodes": [[["layer_normalization_355", 0, 0, {}]]]}, {"class_name": "Dense", "config": {"name": "dense_561", "trainable": true, "dtype": "float32", "units": 128, "activation": "relu", "use_bias": true, "kernel_initializer": {"class_name": "GlorotUniform", "config": {"seed": null}}, "bias_initializer": {"class_name": "Zeros", "config": {}}, "kernel_regularizer": {"class_name": "L2", "config": {"l2": 0.0010000000474974513}}, "bias_regularizer": null, "activity_regularizer": null, "kernel_constraint": null, "bias_constraint": null}, "name": "dense_561", "inbound_nodes": [[["layer_normalization_357", 0, 0, {}]]]}, {"class_name": "Dense", "config": {"name": "dense_564", "trainable": true, "dtype": "float32", "units": 128, "activation": "relu", "use_bias": true, "kernel_initializer": {"class_name": "GlorotUniform", "config": {"seed": null}}, "bias_initializer": {"class_name": "Zeros", "config": {}}, "kernel_regularizer": {"class_name": "L2", "config": {"l2": 0.0010000000474974513}}, "bias_regularizer": null, "activity_regularizer": null, "kernel_constraint": null, "bias_constraint": null}, "name": "dense_564", "inbound_nodes": [[["layer_normalization_359", 0, 0, {}]]]}, {"class_name": "Dense", "config": {"name": "dense_514", "trainable": true, "dtype": "float32", "units": 1, "activation": "relu", "use_bias": true, "kernel_initializer": {"class_name": "GlorotUniform", "config": {"seed": null}}, "bias_initializer": {"class_name": "Zeros", "config": {}}, "kernel_regularizer": null, "bias_regularizer": null, "activity_regularizer": null, "kernel_constraint": null, "bias_constraint": null}, "name": "dense_514", "inbound_nodes": [[["dense_513", 0, 0, {}]]]}, {"class_name": "Dense", "config": {"name": "dense_517", "trainable": true, "dtype": "float32", "units": 1, "activation": "relu", "use_bias": true, "kernel_initializer": {"class_name": "GlorotUniform", "config": {"seed": null}}, "bias_initializer": {"class_name": "Zeros", "config": {}}, "kernel_regularizer": null, "bias_regularizer": null, "activity_regularizer": null, "kernel_constraint": null, "bias_constraint": null}, "name": "dense_517", "inbound_nodes": [[["dense_516", 0, 0, {}]]]}, {"class_name": "Dense", "config": {"name": "dense_520", "trainable": true, "dtype": "float32", "units": 1, "activation": "relu", "use_bias": true, "kernel_initializer": {"class_name": "GlorotUniform", "config": {"seed": null}}, "bias_initializer": {"class_name": "Zeros", "config": {}}, "kernel_regularizer": null, "bias_regularizer": null, "activity_regularizer": null, "kernel_constraint": null, "bias_constraint": null}, "name": "dense_520", "inbound_nodes": [[["dense_519", 0, 0, {}]]]}, {"class_name": "Dense", "config": {"name": "dense_523", "trainable": true, "dtype": "float32", "units": 1, "activation": "relu", "use_bias": true, "kernel_initializer": {"class_name": "GlorotUniform", "config": {"seed": null}}, "bias_initializer": {"class_name": "Zeros", "config": {}}, "kernel_regularizer": null, "bias_regularizer": null, "activity_regularizer": null, "kernel_constraint": null, "bias_constraint": null}, "name": "dense_523", "inbound_nodes": [[["dense_522", 0, 0, {}]]]}, {"class_name": "Dense", "config": {"name": "dense_526", "trainable": true, "dtype": "float32", "units": 1, "activation": "relu", "use_bias": true, "kernel_initializer": {"class_name": "GlorotUniform", "config": {"seed": null}}, "bias_initializer": {"class_name": "Zeros", "config": {}}, "kernel_regularizer": null, "bias_regularizer": null, "activity_regularizer": null, "kernel_constraint": null, "bias_constraint": null}, "name": "dense_526", "inbound_nodes": [[["dense_525", 0, 0, {}]]]}, {"class_name": "Dense", "config": {"name": "dense_529", "trainable": true, "dtype": "float32", "units": 1, "activation": "relu", "use_bias": true, "kernel_initializer": {"class_name": "GlorotUniform", "config": {"seed": null}}, "bias_initializer": {"class_name": "Zeros", "config": {}}, "kernel_regularizer": null, "bias_regularizer": null, "activity_regularizer": null, "kernel_constraint": null, "bias_constraint": null}, "name": "dense_529", "inbound_nodes": [[["dense_528", 0, 0, {}]]]}, {"class_name": "Dense", "config": {"name": "dense_532", "trainable": true, "dtype": "float32", "units": 1, "activation": "relu", "use_bias": true, "kernel_initializer": {"class_name": "GlorotUniform", "config": {"seed": null}}, "bias_initializer": {"class_name": "Zeros", "config": {}}, "kernel_regularizer": null, "bias_regularizer": null, "activity_regularizer": null, "kernel_constraint": null, "bias_constraint": null}, "name": "dense_532", "inbound_nodes": [[["dense_531", 0, 0, {}]]]}, {"class_name": "Dense", "config": {"name": "dense_535", "trainable": true, "dtype": "float32", "units": 1, "activation": "relu", "use_bias": true, "kernel_initializer": {"class_name": "GlorotUniform", "config": {"seed": null}}, "bias_initializer": {"class_name": "Zeros", "config": {}}, "kernel_regularizer": null, "bias_regularizer": null, "activity_regularizer": null, "kernel_constraint": null, "bias_constraint": null}, "name": "dense_535", "inbound_nodes": [[["dense_534", 0, 0, {}]]]}, {"class_name": "Dense", "config": {"name": "dense_538", "trainable": true, "dtype": "float32", "units": 1, "activation": "relu", "use_bias": true, "kernel_initializer": {"class_name": "GlorotUniform", "config": {"seed": null}}, "bias_initializer": {"class_name": "Zeros", "config": {}}, "kernel_regularizer": null, "bias_regularizer": null, "activity_regularizer": null, "kernel_constraint": null, "bias_constraint": null}, "name": "dense_538", "inbound_nodes": [[["dense_537", 0, 0, {}]]]}, {"class_name": "Dense", "config": {"name": "dense_541", "trainable": true, "dtype": "float32", "units": 1, "activation": "relu", "use_bias": true, "kernel_initializer": {"class_name": "GlorotUniform", "config": {"seed": null}}, "bias_initializer": {"class_name": "Zeros", "config": {}}, "kernel_regularizer": null, "bias_regularizer": null, "activity_regularizer": null, "kernel_constraint": null, "bias_constraint": null}, "name": "dense_541", "inbound_nodes": [[["dense_540", 0, 0, {}]]]}, {"class_name": "Dense", "config": {"name": "dense_544", "trainable": true, "dtype": "float32", "units": 1, "activation": "relu", "use_bias": true, "kernel_initializer": {"class_name": "GlorotUniform", "config": {"seed": null}}, "bias_initializer": {"class_name": "Zeros", "config": {}}, "kernel_regularizer": null, "bias_regularizer": null, "activity_regularizer": null, "kernel_constraint": null, "bias_constraint": null}, "name": "dense_544", "inbound_nodes": [[["dense_543", 0, 0, {}]]]}, {"class_name": "Dense", "config": {"name": "dense_547", "trainable": true, "dtype": "float32", "units": 1, "activation": "relu", "use_bias": true, "kernel_initializer": {"class_name": "GlorotUniform", "config": {"seed": null}}, "bias_initializer": {"class_name": "Zeros", "config": {}}, "kernel_regularizer": null, "bias_regularizer": null, "activity_regularizer": null, "kernel_constraint": null, "bias_constraint": null}, "name": "dense_547", "inbound_nodes": [[["dense_546", 0, 0, {}]]]}, {"class_name": "Dense", "config": {"name": "dense_550", "trainable": true, "dtype": "float32", "units": 1, "activation": "relu", "use_bias": true, "kernel_initializer": {"class_name": "GlorotUniform", "config": {"seed": null}}, "bias_initializer": {"class_name": "Zeros", "config": {}}, "kernel_regularizer": null, "bias_regularizer": null, "activity_regularizer": null, "kernel_constraint": null, "bias_constraint": null}, "name": "dense_550", "inbound_nodes": [[["dense_549", 0, 0, {}]]]}, {"class_name": "Dense", "config": {"name": "dense_553", "trainable": true, "dtype": "float32", "units": 1, "activation": "relu", "use_bias": true, "kernel_initializer": {"class_name": "GlorotUniform", "config": {"seed": null}}, "bias_initializer": {"class_name": "Zeros", "config": {}}, "kernel_regularizer": null, "bias_regularizer": null, "activity_regularizer": null, "kernel_constraint": null, "bias_constraint": null}, "name": "dense_553", "inbound_nodes": [[["dense_552", 0, 0, {}]]]}, {"class_name": "Dense", "config": {"name": "dense_556", "trainable": true, "dtype": "float32", "units": 1, "activation": "relu", "use_bias": true, "kernel_initializer": {"class_name": "GlorotUniform", "config": {"seed": null}}, "bias_initializer": {"class_name": "Zeros", "config": {}}, "kernel_regularizer": null, "bias_regularizer": null, "activity_regularizer": null, "kernel_constraint": null, "bias_constraint": null}, "name": "dense_556", "inbound_nodes": [[["dense_555", 0, 0, {}]]]}, {"class_name": "Dense", "config": {"name": "dense_559", "trainable": true, "dtype": "float32", "units": 1, "activation": "relu", "use_bias": true, "kernel_initializer": {"class_name": "GlorotUniform", "config": {"seed": null}}, "bias_initializer": {"class_name": "Zeros", "config": {}}, "kernel_regularizer": null, "bias_regularizer": null, "activity_regularizer": null, "kernel_constraint": null, "bias_constraint": null}, "name": "dense_559", "inbound_nodes": [[["dense_558", 0, 0, {}]]]}, {"class_name": "Dense", "config": {"name": "dense_562", "trainable": true, "dtype": "float32", "units": 1, "activation": "relu", "use_bias": true, "kernel_initializer": {"class_name": "GlorotUniform", "config": {"seed": null}}, "bias_initializer": {"class_name": "Zeros", "config": {}}, "kernel_regularizer": null, "bias_regularizer": null, "activity_regularizer": null, "kernel_constraint": null, "bias_constraint": null}, "name": "dense_562", "inbound_nodes": [[["dense_561", 0, 0, {}]]]}, {"class_name": "Dense", "config": {"name": "dense_565", "trainable": true, "dtype": "float32", "units": 1, "activation": "relu", "use_bias": true, "kernel_initializer": {"class_name": "GlorotUniform", "config": {"seed": null}}, "bias_initializer": {"class_name": "Zeros", "config": {}}, "kernel_regularizer": null, "bias_regularizer": null, "activity_regularizer": null, "kernel_constraint": null, "bias_constraint": null}, "name": "dense_565", "inbound_nodes": [[["dense_564", 0, 0, {}]]]}, {"class_name": "Conv1D", "config": {"name": "conv1d_162", "trainable": true, "dtype": "float32", "filters": 64, "kernel_size": [3], "strides": [1], "padding": "same", "data_format": "channels_last", "dilation_rate": [1], "groups": 1, "activation": "relu", "use_bias": true, "kernel_initializer": {"class_name": "GlorotUniform", "config": {"seed": null}}, "bias_initializer": {"class_name": "Zeros", "config": {}}, "kernel_regularizer": null, "bias_regularizer": null, "activity_regularizer": null, "kernel_constraint": null, "bias_constraint": null}, "name": "conv1d_162", "inbound_nodes": [[["input_163", 0, 0, {}]]]}, {"class_name": "Add", "config": {"name": "add_325", "trainable": true, "dtype": "float32"}, "name": "add_325", "inbound_nodes": [[["add_324", 0, 0, {}], ["dense_514", 0, 0, {}]]]}, {"class_name": "Conv1D", "config": {"name": "conv1d_163", "trainable": true, "dtype": "float32", "filters": 64, "kernel_size": [3], "strides": [1], "padding": "same", "data_format": "channels_last", "dilation_rate": [1], "groups": 1, "activation": "relu", "use_bias": true, "kernel_initializer": {"class_name": "GlorotUniform", "config": {"seed": null}}, "bias_initializer": {"class_name": "Zeros", "config": {}}, "kernel_regularizer": null, "bias_regularizer": null, "activity_regularizer": null, "kernel_constraint": null, "bias_constraint": null}, "name": "conv1d_163", "inbound_nodes": [[["input_164", 0, 0, {}]]]}, {"class_name": "Add", "config": {"name": "add_327", "trainable": true, "dtype": "float32"}, "name": "add_327", "inbound_nodes": [[["add_326", 0, 0, {}], ["dense_517", 0, 0, {}]]]}, {"class_name": "Conv1D", "config": {"name": "conv1d_164", "trainable": true, "dtype": "float32", "filters": 64, "kernel_size": [3], "strides": [1], "padding": "same", "data_format": "channels_last", "dilation_rate": [1], "groups": 1, "activation": "relu", "use_bias": true, "kernel_initializer": {"class_name": "GlorotUniform", "config": {"seed": null}}, "bias_initializer": {"class_name": "Zeros", "config": {}}, "kernel_regularizer": null, "bias_regularizer": null, "activity_regularizer": null, "kernel_constraint": null, "bias_constraint": null}, "name": "conv1d_164", "inbound_nodes": [[["input_165", 0, 0, {}]]]}, {"class_name": "Add", "config": {"name": "add_329", "trainable": true, "dtype": "float32"}, "name": "add_329", "inbound_nodes": [[["add_328", 0, 0, {}], ["dense_520", 0, 0, {}]]]}, {"class_name": "Conv1D", "config": {"name": "conv1d_165", "trainable": true, "dtype": "float32", "filters": 64, "kernel_size": [3], "strides": [1], "padding": "same", "data_format": "channels_last", "dilation_rate": [1], "groups": 1, "activation": "relu", "use_bias": true, "kernel_initializer": {"class_name": "GlorotUniform", "config": {"seed": null}}, "bias_initializer": {"class_name": "Zeros", "config": {}}, "kernel_regularizer": null, "bias_regularizer": null, "activity_regularizer": null, "kernel_constraint": null, "bias_constraint": null}, "name": "conv1d_165", "inbound_nodes": [[["input_166", 0, 0, {}]]]}, {"class_name": "Add", "config": {"name": "add_331", "trainable": true, "dtype": "float32"}, "name": "add_331", "inbound_nodes": [[["add_330", 0, 0, {}], ["dense_523", 0, 0, {}]]]}, {"class_name": "Conv1D", "config": {"name": "conv1d_166", "trainable": true, "dtype": "float32", "filters": 64, "kernel_size": [3], "strides": [1], "padding": "same", "data_format": "channels_last", "dilation_rate": [1], "groups": 1, "activation": "relu", "use_bias": true, "kernel_initializer": {"class_name": "GlorotUniform", "config": {"seed": null}}, "bias_initializer": {"class_name": "Zeros", "config": {}}, "kernel_regularizer": null, "bias_regularizer": null, "activity_regularizer": null, "kernel_constraint": null, "bias_constraint": null}, "name": "conv1d_166", "inbound_nodes": [[["input_167", 0, 0, {}]]]}, {"class_name": "Add", "config": {"name": "add_333", "trainable": true, "dtype": "float32"}, "name": "add_333", "inbound_nodes": [[["add_332", 0, 0, {}], ["dense_526", 0, 0, {}]]]}, {"class_name": "Conv1D", "config": {"name": "conv1d_167", "trainable": true, "dtype": "float32", "filters": 64, "kernel_size": [3], "strides": [1], "padding": "same", "data_format": "channels_last", "dilation_rate": [1], "groups": 1, "activation": "relu", "use_bias": true, "kernel_initializer": {"class_name": "GlorotUniform", "config": {"seed": null}}, "bias_initializer": {"class_name": "Zeros", "config": {}}, "kernel_regularizer": null, "bias_regularizer": null, "activity_regularizer": null, "kernel_constraint": null, "bias_constraint": null}, "name": "conv1d_167", "inbound_nodes": [[["input_168", 0, 0, {}]]]}, {"class_name": "Add", "config": {"name": "add_335", "trainable": true, "dtype": "float32"}, "name": "add_335", "inbound_nodes": [[["add_334", 0, 0, {}], ["dense_529", 0, 0, {}]]]}, {"class_name": "Conv1D", "config": {"name": "conv1d_168", "trainable": true, "dtype": "float32", "filters": 64, "kernel_size": [3], "strides": [1], "padding": "same", "data_format": "channels_last", "dilation_rate": [1], "groups": 1, "activation": "relu", "use_bias": true, "kernel_initializer": {"class_name": "GlorotUniform", "config": {"seed": null}}, "bias_initializer": {"class_name": "Zeros", "config": {}}, "kernel_regularizer": null, "bias_regularizer": null, "activity_regularizer": null, "kernel_constraint": null, "bias_constraint": null}, "name": "conv1d_168", "inbound_nodes": [[["input_169", 0, 0, {}]]]}, {"class_name": "Add", "config": {"name": "add_337", "trainable": true, "dtype": "float32"}, "name": "add_337", "inbound_nodes": [[["add_336", 0, 0, {}], ["dense_532", 0, 0, {}]]]}, {"class_name": "Conv1D", "config": {"name": "conv1d_169", "trainable": true, "dtype": "float32", "filters": 64, "kernel_size": [3], "strides": [1], "padding": "same", "data_format": "channels_last", "dilation_rate": [1], "groups": 1, "activation": "relu", "use_bias": true, "kernel_initializer": {"class_name": "GlorotUniform", "config": {"seed": null}}, "bias_initializer": {"class_name": "Zeros", "config": {}}, "kernel_regularizer": null, "bias_regularizer": null, "activity_regularizer": null, "kernel_constraint": null, "bias_constraint": null}, "name": "conv1d_169", "inbound_nodes": [[["input_170", 0, 0, {}]]]}, {"class_name": "Add", "config": {"name": "add_339", "trainable": true, "dtype": "float32"}, "name": "add_339", "inbound_nodes": [[["add_338", 0, 0, {}], ["dense_535", 0, 0, {}]]]}, {"class_name": "Conv1D", "config": {"name": "conv1d_170", "trainable": true, "dtype": "float32", "filters": 64, "kernel_size": [3], "strides": [1], "padding": "same", "data_format": "channels_last", "dilation_rate": [1], "groups": 1, "activation": "relu", "use_bias": true, "kernel_initializer": {"class_name": "GlorotUniform", "config": {"seed": null}}, "bias_initializer": {"class_name": "Zeros", "config": {}}, "kernel_regularizer": null, "bias_regularizer": null, "activity_regularizer": null, "kernel_constraint": null, "bias_constraint": null}, "name": "conv1d_170", "inbound_nodes": [[["input_171", 0, 0, {}]]]}, {"class_name": "Add", "config": {"name": "add_341", "trainable": true, "dtype": "float32"}, "name": "add_341", "inbound_nodes": [[["add_340", 0, 0, {}], ["dense_538", 0, 0, {}]]]}, {"class_name": "Conv1D", "config": {"name": "conv1d_171", "trainable": true, "dtype": "float32", "filters": 64, "kernel_size": [3], "strides": [1], "padding": "same", "data_format": "channels_last", "dilation_rate": [1], "groups": 1, "activation": "relu", "use_bias": true, "kernel_initializer": {"class_name": "GlorotUniform", "config": {"seed": null}}, "bias_initializer": {"class_name": "Zeros", "config": {}}, "kernel_regularizer": null, "bias_regularizer": null, "activity_regularizer": null, "kernel_constraint": null, "bias_constraint": null}, "name": "conv1d_171", "inbound_nodes": [[["input_172", 0, 0, {}]]]}, {"class_name": "Add", "config": {"name": "add_343", "trainable": true, "dtype": "float32"}, "name": "add_343", "inbound_nodes": [[["add_342", 0, 0, {}], ["dense_541", 0, 0, {}]]]}, {"class_name": "Conv1D", "config": {"name": "conv1d_172", "trainable": true, "dtype": "float32", "filters": 64, "kernel_size": [3], "strides": [1], "padding": "same", "data_format": "channels_last", "dilation_rate": [1], "groups": 1, "activation": "relu", "use_bias": true, "kernel_initializer": {"class_name": "GlorotUniform", "config": {"seed": null}}, "bias_initializer": {"class_name": "Zeros", "config": {}}, "kernel_regularizer": null, "bias_regularizer": null, "activity_regularizer": null, "kernel_constraint": null, "bias_constraint": null}, "name": "conv1d_172", "inbound_nodes": [[["input_173", 0, 0, {}]]]}, {"class_name": "Add", "config": {"name": "add_345", "trainable": true, "dtype": "float32"}, "name": "add_345", "inbound_nodes": [[["add_344", 0, 0, {}], ["dense_544", 0, 0, {}]]]}, {"class_name": "Conv1D", "config": {"name": "conv1d_173", "trainable": true, "dtype": "float32", "filters": 64, "kernel_size": [3], "strides": [1], "padding": "same", "data_format": "channels_last", "dilation_rate": [1], "groups": 1, "activation": "relu", "use_bias": true, "kernel_initializer": {"class_name": "GlorotUniform", "config": {"seed": null}}, "bias_initializer": {"class_name": "Zeros", "config": {}}, "kernel_regularizer": null, "bias_regularizer": null, "activity_regularizer": null, "kernel_constraint": null, "bias_constraint": null}, "name": "conv1d_173", "inbound_nodes": [[["input_174", 0, 0, {}]]]}, {"class_name": "Add", "config": {"name": "add_347", "trainable": true, "dtype": "float32"}, "name": "add_347", "inbound_nodes": [[["add_346", 0, 0, {}], ["dense_547", 0, 0, {}]]]}, {"class_name": "Conv1D", "config": {"name": "conv1d_174", "trainable": true, "dtype": "float32", "filters": 64, "kernel_size": [3], "strides": [1], "padding": "same", "data_format": "channels_last", "dilation_rate": [1], "groups": 1, "activation": "relu", "use_bias": true, "kernel_initializer": {"class_name": "GlorotUniform", "config": {"seed": null}}, "bias_initializer": {"class_name": "Zeros", "config": {}}, "kernel_regularizer": null, "bias_regularizer": null, "activity_regularizer": null, "kernel_constraint": null, "bias_constraint": null}, "name": "conv1d_174", "inbound_nodes": [[["input_175", 0, 0, {}]]]}, {"class_name": "Add", "config": {"name": "add_349", "trainable": true, "dtype": "float32"}, "name": "add_349", "inbound_nodes": [[["add_348", 0, 0, {}], ["dense_550", 0, 0, {}]]]}, {"class_name": "Conv1D", "config": {"name": "conv1d_175", "trainable": true, "dtype": "float32", "filters": 64, "kernel_size": [3], "strides": [1], "padding": "same", "data_format": "channels_last", "dilation_rate": [1], "groups": 1, "activation": "relu", "use_bias": true, "kernel_initializer": {"class_name": "GlorotUniform", "config": {"seed": null}}, "bias_initializer": {"class_name": "Zeros", "config": {}}, "kernel_regularizer": null, "bias_regularizer": null, "activity_regularizer": null, "kernel_constraint": null, "bias_constraint": null}, "name": "conv1d_175", "inbound_nodes": [[["input_176", 0, 0, {}]]]}, {"class_name": "Add", "config": {"name": "add_351", "trainable": true, "dtype": "float32"}, "name": "add_351", "inbound_nodes": [[["add_350", 0, 0, {}], ["dense_553", 0, 0, {}]]]}, {"class_name": "Conv1D", "config": {"name": "conv1d_176", "trainable": true, "dtype": "float32", "filters": 64, "kernel_size": [3], "strides": [1], "padding": "same", "data_format": "channels_last", "dilation_rate": [1], "groups": 1, "activation": "relu", "use_bias": true, "kernel_initializer": {"class_name": "GlorotUniform", "config": {"seed": null}}, "bias_initializer": {"class_name": "Zeros", "config": {}}, "kernel_regularizer": null, "bias_regularizer": null, "activity_regularizer": null, "kernel_constraint": null, "bias_constraint": null}, "name": "conv1d_176", "inbound_nodes": [[["input_177", 0, 0, {}]]]}, {"class_name": "Add", "config": {"name": "add_353", "trainable": true, "dtype": "float32"}, "name": "add_353", "inbound_nodes": [[["add_352", 0, 0, {}], ["dense_556", 0, 0, {}]]]}, {"class_name": "Conv1D", "config": {"name": "conv1d_177", "trainable": true, "dtype": "float32", "filters": 64, "kernel_size": [3], "strides": [1], "padding": "same", "data_format": "channels_last", "dilation_rate": [1], "groups": 1, "activation": "relu", "use_bias": true, "kernel_initializer": {"class_name": "GlorotUniform", "config": {"seed": null}}, "bias_initializer": {"class_name": "Zeros", "config": {}}, "kernel_regularizer": null, "bias_regularizer": null, "activity_regularizer": null, "kernel_constraint": null, "bias_constraint": null}, "name": "conv1d_177", "inbound_nodes": [[["input_178", 0, 0, {}]]]}, {"class_name": "Add", "config": {"name": "add_355", "trainable": true, "dtype": "float32"}, "name": "add_355", "inbound_nodes": [[["add_354", 0, 0, {}], ["dense_559", 0, 0, {}]]]}, {"class_name": "Conv1D", "config": {"name": "conv1d_178", "trainable": true, "dtype": "float32", "filters": 64, "kernel_size": [3], "strides": [1], "padding": "same", "data_format": "channels_last", "dilation_rate": [1], "groups": 1, "activation": "relu", "use_bias": true, "kernel_initializer": {"class_name": "GlorotUniform", "config": {"seed": null}}, "bias_initializer": {"class_name": "Zeros", "config": {}}, "kernel_regularizer": null, "bias_regularizer": null, "activity_regularizer": null, "kernel_constraint": null, "bias_constraint": null}, "name": "conv1d_178", "inbound_nodes": [[["input_179", 0, 0, {}]]]}, {"class_name": "Add", "config": {"name": "add_357", "trainable": true, "dtype": "float32"}, "name": "add_357", "inbound_nodes": [[["add_356", 0, 0, {}], ["dense_562", 0, 0, {}]]]}, {"class_name": "Conv1D", "config": {"name": "conv1d_179", "trainable": true, "dtype": "float32", "filters": 64, "kernel_size": [3], "strides": [1], "padding": "same", "data_format": "channels_last", "dilation_rate": [1], "groups": 1, "activation": "relu", "use_bias": true, "kernel_initializer": {"class_name": "GlorotUniform", "config": {"seed": null}}, "bias_initializer": {"class_name": "Zeros", "config": {}}, "kernel_regularizer": null, "bias_regularizer": null, "activity_regularizer": null, "kernel_constraint": null, "bias_constraint": null}, "name": "conv1d_179", "inbound_nodes": [[["input_180", 0, 0, {}]]]}, {"class_name": "Add", "config": {"name": "add_359", "trainable": true, "dtype": "float32"}, "name": "add_359", "inbound_nodes": [[["add_358", 0, 0, {}], ["dense_565", 0, 0, {}]]]}, {"class_name": "BatchNormalization", "config": {"name": "batch_normalization_486", "trainable": true, "dtype": "float32", "axis": [2], "momentum": 0.99, "epsilon": 0.001, "center": true, "scale": true, "beta_initializer": {"class_name": "Zeros", "config": {}}, "gamma_initializer": {"class_name": "Ones", "config": {}}, "moving_mean_initializer": {"class_name": "Zeros", "config": {}}, "moving_variance_initializer": {"class_name": "Ones", "config": {}}, "beta_regularizer": null, "gamma_regularizer": null, "beta_constraint": null, "gamma_constraint": null}, "name": "batch_normalization_486", "inbound_nodes": [[["conv1d_162", 0, 0, {}]]]}, {"class_name": "BatchNormalization", "config": {"name": "batch_normalization_487", "trainable": true, "dtype": "float32", "axis": [2], "momentum": 0.99, "epsilon": 0.001, "center": true, "scale": true, "beta_initializer": {"class_name": "Zeros", "config": {}}, "gamma_initializer": {"class_name": "Ones", "config": {}}, "moving_mean_initializer": {"class_name": "Zeros", "config": {}}, "moving_variance_initializer": {"class_name": "Ones", "config": {}}, "beta_regularizer": null, "gamma_regularizer": null, "beta_constraint": null, "gamma_constraint": null}, "name": "batch_normalization_487", "inbound_nodes": [[["add_325", 0, 0, {}]]]}, {"class_name": "BatchNormalization", "config": {"name": "batch_normalization_489", "trainable": true, "dtype": "float32", "axis": [2], "momentum": 0.99, "epsilon": 0.001, "center": true, "scale": true, "beta_initializer": {"class_name": "Zeros", "config": {}}, "gamma_initializer": {"class_name": "Ones", "config": {}}, "moving_mean_initializer": {"class_name": "Zeros", "config": {}}, "moving_variance_initializer": {"class_name": "Ones", "config": {}}, "beta_regularizer": null, "gamma_regularizer": null, "beta_constraint": null, "gamma_constraint": null}, "name": "batch_normalization_489", "inbound_nodes": [[["conv1d_163", 0, 0, {}]]]}, {"class_name": "BatchNormalization", "config": {"name": "batch_normalization_490", "trainable": true, "dtype": "float32", "axis": [2], "momentum": 0.99, "epsilon": 0.001, "center": true, "scale": true, "beta_initializer": {"class_name": "Zeros", "config": {}}, "gamma_initializer": {"class_name": "Ones", "config": {}}, "moving_mean_initializer": {"class_name": "Zeros", "config": {}}, "moving_variance_initializer": {"class_name": "Ones", "config": {}}, "beta_regularizer": null, "gamma_regularizer": null, "beta_constraint": null, "gamma_constraint": null}, "name": "batch_normalization_490", "inbound_nodes": [[["add_327", 0, 0, {}]]]}, {"class_name": "BatchNormalization", "config": {"name": "batch_normalization_492", "trainable": true, "dtype": "float32", "axis": [2], "momentum": 0.99, "epsilon": 0.001, "center": true, "scale": true, "beta_initializer": {"class_name": "Zeros", "config": {}}, "gamma_initializer": {"class_name": "Ones", "config": {}}, "moving_mean_initializer": {"class_name": "Zeros", "config": {}}, "moving_variance_initializer": {"class_name": "Ones", "config": {}}, "beta_regularizer": null, "gamma_regularizer": null, "beta_constraint": null, "gamma_constraint": null}, "name": "batch_normalization_492", "inbound_nodes": [[["conv1d_164", 0, 0, {}]]]}, {"class_name": "BatchNormalization", "config": {"name": "batch_normalization_493", "trainable": true, "dtype": "float32", "axis": [2], "momentum": 0.99, "epsilon": 0.001, "center": true, "scale": true, "beta_initializer": {"class_name": "Zeros", "config": {}}, "gamma_initializer": {"class_name": "Ones", "config": {}}, "moving_mean_initializer": {"class_name": "Zeros", "config": {}}, "moving_variance_initializer": {"class_name": "Ones", "config": {}}, "beta_regularizer": null, "gamma_regularizer": null, "beta_constraint": null, "gamma_constraint": null}, "name": "batch_normalization_493", "inbound_nodes": [[["add_329", 0, 0, {}]]]}, {"class_name": "BatchNormalization", "config": {"name": "batch_normalization_495", "trainable": true, "dtype": "float32", "axis": [2], "momentum": 0.99, "epsilon": 0.001, "center": true, "scale": true, "beta_initializer": {"class_name": "Zeros", "config": {}}, "gamma_initializer": {"class_name": "Ones", "config": {}}, "moving_mean_initializer": {"class_name": "Zeros", "config": {}}, "moving_variance_initializer": {"class_name": "Ones", "config": {}}, "beta_regularizer": null, "gamma_regularizer": null, "beta_constraint": null, "gamma_constraint": null}, "name": "batch_normalization_495", "inbound_nodes": [[["conv1d_165", 0, 0, {}]]]}, {"class_name": "BatchNormalization", "config": {"name": "batch_normalization_496", "trainable": true, "dtype": "float32", "axis": [2], "momentum": 0.99, "epsilon": 0.001, "center": true, "scale": true, "beta_initializer": {"class_name": "Zeros", "config": {}}, "gamma_initializer": {"class_name": "Ones", "config": {}}, "moving_mean_initializer": {"class_name": "Zeros", "config": {}}, "moving_variance_initializer": {"class_name": "Ones", "config": {}}, "beta_regularizer": null, "gamma_regularizer": null, "beta_constraint": null, "gamma_constraint": null}, "name": "batch_normalization_496", "inbound_nodes": [[["add_331", 0, 0, {}]]]}, {"class_name": "BatchNormalization", "config": {"name": "batch_normalization_498", "trainable": true, "dtype": "float32", "axis": [2], "momentum": 0.99, "epsilon": 0.001, "center": true, "scale": true, "beta_initializer": {"class_name": "Zeros", "config": {}}, "gamma_initializer": {"class_name": "Ones", "config": {}}, "moving_mean_initializer": {"class_name": "Zeros", "config": {}}, "moving_variance_initializer": {"class_name": "Ones", "config": {}}, "beta_regularizer": null, "gamma_regularizer": null, "beta_constraint": null, "gamma_constraint": null}, "name": "batch_normalization_498", "inbound_nodes": [[["conv1d_166", 0, 0, {}]]]}, {"class_name": "BatchNormalization", "config": {"name": "batch_normalization_499", "trainable": true, "dtype": "float32", "axis": [2], "momentum": 0.99, "epsilon": 0.001, "center": true, "scale": true, "beta_initializer": {"class_name": "Zeros", "config": {}}, "gamma_initializer": {"class_name": "Ones", "config": {}}, "moving_mean_initializer": {"class_name": "Zeros", "config": {}}, "moving_variance_initializer": {"class_name": "Ones", "config": {}}, "beta_regularizer": null, "gamma_regularizer": null, "beta_constraint": null, "gamma_constraint": null}, "name": "batch_normalization_499", "inbound_nodes": [[["add_333", 0, 0, {}]]]}, {"class_name": "BatchNormalization", "config": {"name": "batch_normalization_501", "trainable": true, "dtype": "float32", "axis": [2], "momentum": 0.99, "epsilon": 0.001, "center": true, "scale": true, "beta_initializer": {"class_name": "Zeros", "config": {}}, "gamma_initializer": {"class_name": "Ones", "config": {}}, "moving_mean_initializer": {"class_name": "Zeros", "config": {}}, "moving_variance_initializer": {"class_name": "Ones", "config": {}}, "beta_regularizer": null, "gamma_regularizer": null, "beta_constraint": null, "gamma_constraint": null}, "name": "batch_normalization_501", "inbound_nodes": [[["conv1d_167", 0, 0, {}]]]}, {"class_name": "BatchNormalization", "config": {"name": "batch_normalization_502", "trainable": true, "dtype": "float32", "axis": [2], "momentum": 0.99, "epsilon": 0.001, "center": true, "scale": true, "beta_initializer": {"class_name": "Zeros", "config": {}}, "gamma_initializer": {"class_name": "Ones", "config": {}}, "moving_mean_initializer": {"class_name": "Zeros", "config": {}}, "moving_variance_initializer": {"class_name": "Ones", "config": {}}, "beta_regularizer": null, "gamma_regularizer": null, "beta_constraint": null, "gamma_constraint": null}, "name": "batch_normalization_502", "inbound_nodes": [[["add_335", 0, 0, {}]]]}, {"class_name": "BatchNormalization", "config": {"name": "batch_normalization_504", "trainable": true, "dtype": "float32", "axis": [2], "momentum": 0.99, "epsilon": 0.001, "center": true, "scale": true, "beta_initializer": {"class_name": "Zeros", "config": {}}, "gamma_initializer": {"class_name": "Ones", "config": {}}, "moving_mean_initializer": {"class_name": "Zeros", "config": {}}, "moving_variance_initializer": {"class_name": "Ones", "config": {}}, "beta_regularizer": null, "gamma_regularizer": null, "beta_constraint": null, "gamma_constraint": null}, "name": "batch_normalization_504", "inbound_nodes": [[["conv1d_168", 0, 0, {}]]]}, {"class_name": "BatchNormalization", "config": {"name": "batch_normalization_505", "trainable": true, "dtype": "float32", "axis": [2], "momentum": 0.99, "epsilon": 0.001, "center": true, "scale": true, "beta_initializer": {"class_name": "Zeros", "config": {}}, "gamma_initializer": {"class_name": "Ones", "config": {}}, "moving_mean_initializer": {"class_name": "Zeros", "config": {}}, "moving_variance_initializer": {"class_name": "Ones", "config": {}}, "beta_regularizer": null, "gamma_regularizer": null, "beta_constraint": null, "gamma_constraint": null}, "name": "batch_normalization_505", "inbound_nodes": [[["add_337", 0, 0, {}]]]}, {"class_name": "BatchNormalization", "config": {"name": "batch_normalization_507", "trainable": true, "dtype": "float32", "axis": [2], "momentum": 0.99, "epsilon": 0.001, "center": true, "scale": true, "beta_initializer": {"class_name": "Zeros", "config": {}}, "gamma_initializer": {"class_name": "Ones", "config": {}}, "moving_mean_initializer": {"class_name": "Zeros", "config": {}}, "moving_variance_initializer": {"class_name": "Ones", "config": {}}, "beta_regularizer": null, "gamma_regularizer": null, "beta_constraint": null, "gamma_constraint": null}, "name": "batch_normalization_507", "inbound_nodes": [[["conv1d_169", 0, 0, {}]]]}, {"class_name": "BatchNormalization", "config": {"name": "batch_normalization_508", "trainable": true, "dtype": "float32", "axis": [2], "momentum": 0.99, "epsilon": 0.001, "center": true, "scale": true, "beta_initializer": {"class_name": "Zeros", "config": {}}, "gamma_initializer": {"class_name": "Ones", "config": {}}, "moving_mean_initializer": {"class_name": "Zeros", "config": {}}, "moving_variance_initializer": {"class_name": "Ones", "config": {}}, "beta_regularizer": null, "gamma_regularizer": null, "beta_constraint": null, "gamma_constraint": null}, "name": "batch_normalization_508", "inbound_nodes": [[["add_339", 0, 0, {}]]]}, {"class_name": "BatchNormalization", "config": {"name": "batch_normalization_510", "trainable": true, "dtype": "float32", "axis": [2], "momentum": 0.99, "epsilon": 0.001, "center": true, "scale": true, "beta_initializer": {"class_name": "Zeros", "config": {}}, "gamma_initializer": {"class_name": "Ones", "config": {}}, "moving_mean_initializer": {"class_name": "Zeros", "config": {}}, "moving_variance_initializer": {"class_name": "Ones", "config": {}}, "beta_regularizer": null, "gamma_regularizer": null, "beta_constraint": null, "gamma_constraint": null}, "name": "batch_normalization_510", "inbound_nodes": [[["conv1d_170", 0, 0, {}]]]}, {"class_name": "BatchNormalization", "config": {"name": "batch_normalization_511", "trainable": true, "dtype": "float32", "axis": [2], "momentum": 0.99, "epsilon": 0.001, "center": true, "scale": true, "beta_initializer": {"class_name": "Zeros", "config": {}}, "gamma_initializer": {"class_name": "Ones", "config": {}}, "moving_mean_initializer": {"class_name": "Zeros", "config": {}}, "moving_variance_initializer": {"class_name": "Ones", "config": {}}, "beta_regularizer": null, "gamma_regularizer": null, "beta_constraint": null, "gamma_constraint": null}, "name": "batch_normalization_511", "inbound_nodes": [[["add_341", 0, 0, {}]]]}, {"class_name": "BatchNormalization", "config": {"name": "batch_normalization_513", "trainable": true, "dtype": "float32", "axis": [2], "momentum": 0.99, "epsilon": 0.001, "center": true, "scale": true, "beta_initializer": {"class_name": "Zeros", "config": {}}, "gamma_initializer": {"class_name": "Ones", "config": {}}, "moving_mean_initializer": {"class_name": "Zeros", "config": {}}, "moving_variance_initializer": {"class_name": "Ones", "config": {}}, "beta_regularizer": null, "gamma_regularizer": null, "beta_constraint": null, "gamma_constraint": null}, "name": "batch_normalization_513", "inbound_nodes": [[["conv1d_171", 0, 0, {}]]]}, {"class_name": "BatchNormalization", "config": {"name": "batch_normalization_514", "trainable": true, "dtype": "float32", "axis": [2], "momentum": 0.99, "epsilon": 0.001, "center": true, "scale": true, "beta_initializer": {"class_name": "Zeros", "config": {}}, "gamma_initializer": {"class_name": "Ones", "config": {}}, "moving_mean_initializer": {"class_name": "Zeros", "config": {}}, "moving_variance_initializer": {"class_name": "Ones", "config": {}}, "beta_regularizer": null, "gamma_regularizer": null, "beta_constraint": null, "gamma_constraint": null}, "name": "batch_normalization_514", "inbound_nodes": [[["add_343", 0, 0, {}]]]}, {"class_name": "BatchNormalization", "config": {"name": "batch_normalization_516", "trainable": true, "dtype": "float32", "axis": [2], "momentum": 0.99, "epsilon": 0.001, "center": true, "scale": true, "beta_initializer": {"class_name": "Zeros", "config": {}}, "gamma_initializer": {"class_name": "Ones", "config": {}}, "moving_mean_initializer": {"class_name": "Zeros", "config": {}}, "moving_variance_initializer": {"class_name": "Ones", "config": {}}, "beta_regularizer": null, "gamma_regularizer": null, "beta_constraint": null, "gamma_constraint": null}, "name": "batch_normalization_516", "inbound_nodes": [[["conv1d_172", 0, 0, {}]]]}, {"class_name": "BatchNormalization", "config": {"name": "batch_normalization_517", "trainable": true, "dtype": "float32", "axis": [2], "momentum": 0.99, "epsilon": 0.001, "center": true, "scale": true, "beta_initializer": {"class_name": "Zeros", "config": {}}, "gamma_initializer": {"class_name": "Ones", "config": {}}, "moving_mean_initializer": {"class_name": "Zeros", "config": {}}, "moving_variance_initializer": {"class_name": "Ones", "config": {}}, "beta_regularizer": null, "gamma_regularizer": null, "beta_constraint": null, "gamma_constraint": null}, "name": "batch_normalization_517", "inbound_nodes": [[["add_345", 0, 0, {}]]]}, {"class_name": "BatchNormalization", "config": {"name": "batch_normalization_519", "trainable": true, "dtype": "float32", "axis": [2], "momentum": 0.99, "epsilon": 0.001, "center": true, "scale": true, "beta_initializer": {"class_name": "Zeros", "config": {}}, "gamma_initializer": {"class_name": "Ones", "config": {}}, "moving_mean_initializer": {"class_name": "Zeros", "config": {}}, "moving_variance_initializer": {"class_name": "Ones", "config": {}}, "beta_regularizer": null, "gamma_regularizer": null, "beta_constraint": null, "gamma_constraint": null}, "name": "batch_normalization_519", "inbound_nodes": [[["conv1d_173", 0, 0, {}]]]}, {"class_name": "BatchNormalization", "config": {"name": "batch_normalization_520", "trainable": true, "dtype": "float32", "axis": [2], "momentum": 0.99, "epsilon": 0.001, "center": true, "scale": true, "beta_initializer": {"class_name": "Zeros", "config": {}}, "gamma_initializer": {"class_name": "Ones", "config": {}}, "moving_mean_initializer": {"class_name": "Zeros", "config": {}}, "moving_variance_initializer": {"class_name": "Ones", "config": {}}, "beta_regularizer": null, "gamma_regularizer": null, "beta_constraint": null, "gamma_constraint": null}, "name": "batch_normalization_520", "inbound_nodes": [[["add_347", 0, 0, {}]]]}, {"class_name": "BatchNormalization", "config": {"name": "batch_normalization_522", "trainable": true, "dtype": "float32", "axis": [2], "momentum": 0.99, "epsilon": 0.001, "center": true, "scale": true, "beta_initializer": {"class_name": "Zeros", "config": {}}, "gamma_initializer": {"class_name": "Ones", "config": {}}, "moving_mean_initializer": {"class_name": "Zeros", "config": {}}, "moving_variance_initializer": {"class_name": "Ones", "config": {}}, "beta_regularizer": null, "gamma_regularizer": null, "beta_constraint": null, "gamma_constraint": null}, "name": "batch_normalization_522", "inbound_nodes": [[["conv1d_174", 0, 0, {}]]]}, {"class_name": "BatchNormalization", "config": {"name": "batch_normalization_523", "trainable": true, "dtype": "float32", "axis": [2], "momentum": 0.99, "epsilon": 0.001, "center": true, "scale": true, "beta_initializer": {"class_name": "Zeros", "config": {}}, "gamma_initializer": {"class_name": "Ones", "config": {}}, "moving_mean_initializer": {"class_name": "Zeros", "config": {}}, "moving_variance_initializer": {"class_name": "Ones", "config": {}}, "beta_regularizer": null, "gamma_regularizer": null, "beta_constraint": null, "gamma_constraint": null}, "name": "batch_normalization_523", "inbound_nodes": [[["add_349", 0, 0, {}]]]}, {"class_name": "BatchNormalization", "config": {"name": "batch_normalization_525", "trainable": true, "dtype": "float32", "axis": [2], "momentum": 0.99, "epsilon": 0.001, "center": true, "scale": true, "beta_initializer": {"class_name": "Zeros", "config": {}}, "gamma_initializer": {"class_name": "Ones", "config": {}}, "moving_mean_initializer": {"class_name": "Zeros", "config": {}}, "moving_variance_initializer": {"class_name": "Ones", "config": {}}, "beta_regularizer": null, "gamma_regularizer": null, "beta_constraint": null, "gamma_constraint": null}, "name": "batch_normalization_525", "inbound_nodes": [[["conv1d_175", 0, 0, {}]]]}, {"class_name": "BatchNormalization", "config": {"name": "batch_normalization_526", "trainable": true, "dtype": "float32", "axis": [2], "momentum": 0.99, "epsilon": 0.001, "center": true, "scale": true, "beta_initializer": {"class_name": "Zeros", "config": {}}, "gamma_initializer": {"class_name": "Ones", "config": {}}, "moving_mean_initializer": {"class_name": "Zeros", "config": {}}, "moving_variance_initializer": {"class_name": "Ones", "config": {}}, "beta_regularizer": null, "gamma_regularizer": null, "beta_constraint": null, "gamma_constraint": null}, "name": "batch_normalization_526", "inbound_nodes": [[["add_351", 0, 0, {}]]]}, {"class_name": "BatchNormalization", "config": {"name": "batch_normalization_528", "trainable": true, "dtype": "float32", "axis": [2], "momentum": 0.99, "epsilon": 0.001, "center": true, "scale": true, "beta_initializer": {"class_name": "Zeros", "config": {}}, "gamma_initializer": {"class_name": "Ones", "config": {}}, "moving_mean_initializer": {"class_name": "Zeros", "config": {}}, "moving_variance_initializer": {"class_name": "Ones", "config": {}}, "beta_regularizer": null, "gamma_regularizer": null, "beta_constraint": null, "gamma_constraint": null}, "name": "batch_normalization_528", "inbound_nodes": [[["conv1d_176", 0, 0, {}]]]}, {"class_name": "BatchNormalization", "config": {"name": "batch_normalization_529", "trainable": true, "dtype": "float32", "axis": [2], "momentum": 0.99, "epsilon": 0.001, "center": true, "scale": true, "beta_initializer": {"class_name": "Zeros", "config": {}}, "gamma_initializer": {"class_name": "Ones", "config": {}}, "moving_mean_initializer": {"class_name": "Zeros", "config": {}}, "moving_variance_initializer": {"class_name": "Ones", "config": {}}, "beta_regularizer": null, "gamma_regularizer": null, "beta_constraint": null, "gamma_constraint": null}, "name": "batch_normalization_529", "inbound_nodes": [[["add_353", 0, 0, {}]]]}, {"class_name": "BatchNormalization", "config": {"name": "batch_normalization_531", "trainable": true, "dtype": "float32", "axis": [2], "momentum": 0.99, "epsilon": 0.001, "center": true, "scale": true, "beta_initializer": {"class_name": "Zeros", "config": {}}, "gamma_initializer": {"class_name": "Ones", "config": {}}, "moving_mean_initializer": {"class_name": "Zeros", "config": {}}, "moving_variance_initializer": {"class_name": "Ones", "config": {}}, "beta_regularizer": null, "gamma_regularizer": null, "beta_constraint": null, "gamma_constraint": null}, "name": "batch_normalization_531", "inbound_nodes": [[["conv1d_177", 0, 0, {}]]]}, {"class_name": "BatchNormalization", "config": {"name": "batch_normalization_532", "trainable": true, "dtype": "float32", "axis": [2], "momentum": 0.99, "epsilon": 0.001, "center": true, "scale": true, "beta_initializer": {"class_name": "Zeros", "config": {}}, "gamma_initializer": {"class_name": "Ones", "config": {}}, "moving_mean_initializer": {"class_name": "Zeros", "config": {}}, "moving_variance_initializer": {"class_name": "Ones", "config": {}}, "beta_regularizer": null, "gamma_regularizer": null, "beta_constraint": null, "gamma_constraint": null}, "name": "batch_normalization_532", "inbound_nodes": [[["add_355", 0, 0, {}]]]}, {"class_name": "BatchNormalization", "config": {"name": "batch_normalization_534", "trainable": true, "dtype": "float32", "axis": [2], "momentum": 0.99, "epsilon": 0.001, "center": true, "scale": true, "beta_initializer": {"class_name": "Zeros", "config": {}}, "gamma_initializer": {"class_name": "Ones", "config": {}}, "moving_mean_initializer": {"class_name": "Zeros", "config": {}}, "moving_variance_initializer": {"class_name": "Ones", "config": {}}, "beta_regularizer": null, "gamma_regularizer": null, "beta_constraint": null, "gamma_constraint": null}, "name": "batch_normalization_534", "inbound_nodes": [[["conv1d_178", 0, 0, {}]]]}, {"class_name": "BatchNormalization", "config": {"name": "batch_normalization_535", "trainable": true, "dtype": "float32", "axis": [2], "momentum": 0.99, "epsilon": 0.001, "center": true, "scale": true, "beta_initializer": {"class_name": "Zeros", "config": {}}, "gamma_initializer": {"class_name": "Ones", "config": {}}, "moving_mean_initializer": {"class_name": "Zeros", "config": {}}, "moving_variance_initializer": {"class_name": "Ones", "config": {}}, "beta_regularizer": null, "gamma_regularizer": null, "beta_constraint": null, "gamma_constraint": null}, "name": "batch_normalization_535", "inbound_nodes": [[["add_357", 0, 0, {}]]]}, {"class_name": "BatchNormalization", "config": {"name": "batch_normalization_537", "trainable": true, "dtype": "float32", "axis": [2], "momentum": 0.99, "epsilon": 0.001, "center": true, "scale": true, "beta_initializer": {"class_name": "Zeros", "config": {}}, "gamma_initializer": {"class_name": "Ones", "config": {}}, "moving_mean_initializer": {"class_name": "Zeros", "config": {}}, "moving_variance_initializer": {"class_name": "Ones", "config": {}}, "beta_regularizer": null, "gamma_regularizer": null, "beta_constraint": null, "gamma_constraint": null}, "name": "batch_normalization_537", "inbound_nodes": [[["conv1d_179", 0, 0, {}]]]}, {"class_name": "BatchNormalization", "config": {"name": "batch_normalization_538", "trainable": true, "dtype": "float32", "axis": [2], "momentum": 0.99, "epsilon": 0.001, "center": true, "scale": true, "beta_initializer": {"class_name": "Zeros", "config": {}}, "gamma_initializer": {"class_name": "Ones", "config": {}}, "moving_mean_initializer": {"class_name": "Zeros", "config": {}}, "moving_variance_initializer": {"class_name": "Ones", "config": {}}, "beta_regularizer": null, "gamma_regularizer": null, "beta_constraint": null, "gamma_constraint": null}, "name": "batch_normalization_538", "inbound_nodes": [[["add_359", 0, 0, {}]]]}, {"class_name": "Dropout", "config": {"name": "dropout_513", "trainable": true, "dtype": "float32", "rate": 0.4, "noise_shape": null, "seed": null}, "name": "dropout_513", "inbound_nodes": [[["batch_normalization_486", 0, 0, {}]]]}, {"class_name": "Dropout", "config": {"name": "dropout_514", "trainable": true, "dtype": "float32", "rate": 0.4, "noise_shape": null, "seed": null}, "name": "dropout_514", "inbound_nodes": [[["batch_normalization_487", 0, 0, {}]]]}, {"class_name": "Dropout", "config": {"name": "dropout_516", "trainable": true, "dtype": "float32", "rate": 0.4, "noise_shape": null, "seed": null}, "name": "dropout_516", "inbound_nodes": [[["batch_normalization_489", 0, 0, {}]]]}, {"class_name": "Dropout", "config": {"name": "dropout_517", "trainable": true, "dtype": "float32", "rate": 0.4, "noise_shape": null, "seed": null}, "name": "dropout_517", "inbound_nodes": [[["batch_normalization_490", 0, 0, {}]]]}, {"class_name": "Dropout", "config": {"name": "dropout_519", "trainable": true, "dtype": "float32", "rate": 0.4, "noise_shape": null, "seed": null}, "name": "dropout_519", "inbound_nodes": [[["batch_normalization_492", 0, 0, {}]]]}, {"class_name": "Dropout", "config": {"name": "dropout_520", "trainable": true, "dtype": "float32", "rate": 0.4, "noise_shape": null, "seed": null}, "name": "dropout_520", "inbound_nodes": [[["batch_normalization_493", 0, 0, {}]]]}, {"class_name": "Dropout", "config": {"name": "dropout_522", "trainable": true, "dtype": "float32", "rate": 0.4, "noise_shape": null, "seed": null}, "name": "dropout_522", "inbound_nodes": [[["batch_normalization_495", 0, 0, {}]]]}, {"class_name": "Dropout", "config": {"name": "dropout_523", "trainable": true, "dtype": "float32", "rate": 0.4, "noise_shape": null, "seed": null}, "name": "dropout_523", "inbound_nodes": [[["batch_normalization_496", 0, 0, {}]]]}, {"class_name": "Dropout", "config": {"name": "dropout_525", "trainable": true, "dtype": "float32", "rate": 0.4, "noise_shape": null, "seed": null}, "name": "dropout_525", "inbound_nodes": [[["batch_normalization_498", 0, 0, {}]]]}, {"class_name": "Dropout", "config": {"name": "dropout_526", "trainable": true, "dtype": "float32", "rate": 0.4, "noise_shape": null, "seed": null}, "name": "dropout_526", "inbound_nodes": [[["batch_normalization_499", 0, 0, {}]]]}, {"class_name": "Dropout", "config": {"name": "dropout_528", "trainable": true, "dtype": "float32", "rate": 0.4, "noise_shape": null, "seed": null}, "name": "dropout_528", "inbound_nodes": [[["batch_normalization_501", 0, 0, {}]]]}, {"class_name": "Dropout", "config": {"name": "dropout_529", "trainable": true, "dtype": "float32", "rate": 0.4, "noise_shape": null, "seed": null}, "name": "dropout_529", "inbound_nodes": [[["batch_normalization_502", 0, 0, {}]]]}, {"class_name": "Dropout", "config": {"name": "dropout_531", "trainable": true, "dtype": "float32", "rate": 0.4, "noise_shape": null, "seed": null}, "name": "dropout_531", "inbound_nodes": [[["batch_normalization_504", 0, 0, {}]]]}, {"class_name": "Dropout", "config": {"name": "dropout_532", "trainable": true, "dtype": "float32", "rate": 0.4, "noise_shape": null, "seed": null}, "name": "dropout_532", "inbound_nodes": [[["batch_normalization_505", 0, 0, {}]]]}, {"class_name": "Dropout", "config": {"name": "dropout_534", "trainable": true, "dtype": "float32", "rate": 0.4, "noise_shape": null, "seed": null}, "name": "dropout_534", "inbound_nodes": [[["batch_normalization_507", 0, 0, {}]]]}, {"class_name": "Dropout", "config": {"name": "dropout_535", "trainable": true, "dtype": "float32", "rate": 0.4, "noise_shape": null, "seed": null}, "name": "dropout_535", "inbound_nodes": [[["batch_normalization_508", 0, 0, {}]]]}, {"class_name": "Dropout", "config": {"name": "dropout_537", "trainable": true, "dtype": "float32", "rate": 0.4, "noise_shape": null, "seed": null}, "name": "dropout_537", "inbound_nodes": [[["batch_normalization_510", 0, 0, {}]]]}, {"class_name": "Dropout", "config": {"name": "dropout_538", "trainable": true, "dtype": "float32", "rate": 0.4, "noise_shape": null, "seed": null}, "name": "dropout_538", "inbound_nodes": [[["batch_normalization_511", 0, 0, {}]]]}, {"class_name": "Dropout", "config": {"name": "dropout_540", "trainable": true, "dtype": "float32", "rate": 0.4, "noise_shape": null, "seed": null}, "name": "dropout_540", "inbound_nodes": [[["batch_normalization_513", 0, 0, {}]]]}, {"class_name": "Dropout", "config": {"name": "dropout_541", "trainable": true, "dtype": "float32", "rate": 0.4, "noise_shape": null, "seed": null}, "name": "dropout_541", "inbound_nodes": [[["batch_normalization_514", 0, 0, {}]]]}, {"class_name": "Dropout", "config": {"name": "dropout_543", "trainable": true, "dtype": "float32", "rate": 0.4, "noise_shape": null, "seed": null}, "name": "dropout_543", "inbound_nodes": [[["batch_normalization_516", 0, 0, {}]]]}, {"class_name": "Dropout", "config": {"name": "dropout_544", "trainable": true, "dtype": "float32", "rate": 0.4, "noise_shape": null, "seed": null}, "name": "dropout_544", "inbound_nodes": [[["batch_normalization_517", 0, 0, {}]]]}, {"class_name": "Dropout", "config": {"name": "dropout_546", "trainable": true, "dtype": "float32", "rate": 0.4, "noise_shape": null, "seed": null}, "name": "dropout_546", "inbound_nodes": [[["batch_normalization_519", 0, 0, {}]]]}, {"class_name": "Dropout", "config": {"name": "dropout_547", "trainable": true, "dtype": "float32", "rate": 0.4, "noise_shape": null, "seed": null}, "name": "dropout_547", "inbound_nodes": [[["batch_normalization_520", 0, 0, {}]]]}, {"class_name": "Dropout", "config": {"name": "dropout_549", "trainable": true, "dtype": "float32", "rate": 0.4, "noise_shape": null, "seed": null}, "name": "dropout_549", "inbound_nodes": [[["batch_normalization_522", 0, 0, {}]]]}, {"class_name": "Dropout", "config": {"name": "dropout_550", "trainable": true, "dtype": "float32", "rate": 0.4, "noise_shape": null, "seed": null}, "name": "dropout_550", "inbound_nodes": [[["batch_normalization_523", 0, 0, {}]]]}, {"class_name": "Dropout", "config": {"name": "dropout_552", "trainable": true, "dtype": "float32", "rate": 0.4, "noise_shape": null, "seed": null}, "name": "dropout_552", "inbound_nodes": [[["batch_normalization_525", 0, 0, {}]]]}, {"class_name": "Dropout", "config": {"name": "dropout_553", "trainable": true, "dtype": "float32", "rate": 0.4, "noise_shape": null, "seed": null}, "name": "dropout_553", "inbound_nodes": [[["batch_normalization_526", 0, 0, {}]]]}, {"class_name": "Dropout", "config": {"name": "dropout_555", "trainable": true, "dtype": "float32", "rate": 0.4, "noise_shape": null, "seed": null}, "name": "dropout_555", "inbound_nodes": [[["batch_normalization_528", 0, 0, {}]]]}, {"class_name": "Dropout", "config": {"name": "dropout_556", "trainable": true, "dtype": "float32", "rate": 0.4, "noise_shape": null, "seed": null}, "name": "dropout_556", "inbound_nodes": [[["batch_normalization_529", 0, 0, {}]]]}, {"class_name": "Dropout", "config": {"name": "dropout_558", "trainable": true, "dtype": "float32", "rate": 0.4, "noise_shape": null, "seed": null}, "name": "dropout_558", "inbound_nodes": [[["batch_normalization_531", 0, 0, {}]]]}, {"class_name": "Dropout", "config": {"name": "dropout_559", "trainable": true, "dtype": "float32", "rate": 0.4, "noise_shape": null, "seed": null}, "name": "dropout_559", "inbound_nodes": [[["batch_normalization_532", 0, 0, {}]]]}, {"class_name": "Dropout", "config": {"name": "dropout_561", "trainable": true, "dtype": "float32", "rate": 0.4, "noise_shape": null, "seed": null}, "name": "dropout_561", "inbound_nodes": [[["batch_normalization_534", 0, 0, {}]]]}, {"class_name": "Dropout", "config": {"name": "dropout_562", "trainable": true, "dtype": "float32", "rate": 0.4, "noise_shape": null, "seed": null}, "name": "dropout_562", "inbound_nodes": [[["batch_normalization_535", 0, 0, {}]]]}, {"class_name": "Dropout", "config": {"name": "dropout_564", "trainable": true, "dtype": "float32", "rate": 0.4, "noise_shape": null, "seed": null}, "name": "dropout_564", "inbound_nodes": [[["batch_normalization_537", 0, 0, {}]]]}, {"class_name": "Dropout", "config": {"name": "dropout_565", "trainable": true, "dtype": "float32", "rate": 0.4, "noise_shape": null, "seed": null}, "name": "dropout_565", "inbound_nodes": [[["batch_normalization_538", 0, 0, {}]]]}, {"class_name": "Concatenate", "config": {"name": "concatenate_171", "trainable": true, "dtype": "float32", "axis": -1}, "name": "concatenate_171", "inbound_nodes": [[["dropout_513", 0, 0, {}], ["dropout_514", 0, 0, {}]]]}, {"class_name": "Concatenate", "config": {"name": "concatenate_172", "trainable": true, "dtype": "float32", "axis": -1}, "name": "concatenate_172", "inbound_nodes": [[["dropout_516", 0, 0, {}], ["dropout_517", 0, 0, {}]]]}, {"class_name": "Concatenate", "config": {"name": "concatenate_173", "trainable": true, "dtype": "float32", "axis": -1}, "name": "concatenate_173", "inbound_nodes": [[["dropout_519", 0, 0, {}], ["dropout_520", 0, 0, {}]]]}, {"class_name": "Concatenate", "config": {"name": "concatenate_174", "trainable": true, "dtype": "float32", "axis": -1}, "name": "concatenate_174", "inbound_nodes": [[["dropout_522", 0, 0, {}], ["dropout_523", 0, 0, {}]]]}, {"class_name": "Concatenate", "config": {"name": "concatenate_175", "trainable": true, "dtype": "float32", "axis": -1}, "name": "concatenate_175", "inbound_nodes": [[["dropout_525", 0, 0, {}], ["dropout_526", 0, 0, {}]]]}, {"class_name": "Concatenate", "config": {"name": "concatenate_176", "trainable": true, "dtype": "float32", "axis": -1}, "name": "concatenate_176", "inbound_nodes": [[["dropout_528", 0, 0, {}], ["dropout_529", 0, 0, {}]]]}, {"class_name": "Concatenate", "config": {"name": "concatenate_177", "trainable": true, "dtype": "float32", "axis": -1}, "name": "concatenate_177", "inbound_nodes": [[["dropout_531", 0, 0, {}], ["dropout_532", 0, 0, {}]]]}, {"class_name": "Concatenate", "config": {"name": "concatenate_178", "trainable": true, "dtype": "float32", "axis": -1}, "name": "concatenate_178", "inbound_nodes": [[["dropout_534", 0, 0, {}], ["dropout_535", 0, 0, {}]]]}, {"class_name": "Concatenate", "config": {"name": "concatenate_179", "trainable": true, "dtype": "float32", "axis": -1}, "name": "concatenate_179", "inbound_nodes": [[["dropout_537", 0, 0, {}], ["dropout_538", 0, 0, {}]]]}, {"class_name": "Concatenate", "config": {"name": "concatenate_180", "trainable": true, "dtype": "float32", "axis": -1}, "name": "concatenate_180", "inbound_nodes": [[["dropout_540", 0, 0, {}], ["dropout_541", 0, 0, {}]]]}, {"class_name": "Concatenate", "config": {"name": "concatenate_181", "trainable": true, "dtype": "float32", "axis": -1}, "name": "concatenate_181", "inbound_nodes": [[["dropout_543", 0, 0, {}], ["dropout_544", 0, 0, {}]]]}, {"class_name": "Concatenate", "config": {"name": "concatenate_182", "trainable": true, "dtype": "float32", "axis": -1}, "name": "concatenate_182", "inbound_nodes": [[["dropout_546", 0, 0, {}], ["dropout_547", 0, 0, {}]]]}, {"class_name": "Concatenate", "config": {"name": "concatenate_183", "trainable": true, "dtype": "float32", "axis": -1}, "name": "concatenate_183", "inbound_nodes": [[["dropout_549", 0, 0, {}], ["dropout_550", 0, 0, {}]]]}, {"class_name": "Concatenate", "config": {"name": "concatenate_184", "trainable": true, "dtype": "float32", "axis": -1}, "name": "concatenate_184", "inbound_nodes": [[["dropout_552", 0, 0, {}], ["dropout_553", 0, 0, {}]]]}, {"class_name": "Concatenate", "config": {"name": "concatenate_185", "trainable": true, "dtype": "float32", "axis": -1}, "name": "concatenate_185", "inbound_nodes": [[["dropout_555", 0, 0, {}], ["dropout_556", 0, 0, {}]]]}, {"class_name": "Concatenate", "config": {"name": "concatenate_186", "trainable": true, "dtype": "float32", "axis": -1}, "name": "concatenate_186", "inbound_nodes": [[["dropout_558", 0, 0, {}], ["dropout_559", 0, 0, {}]]]}, {"class_name": "Concatenate", "config": {"name": "concatenate_187", "trainable": true, "dtype": "float32", "axis": -1}, "name": "concatenate_187", "inbound_nodes": [[["dropout_561", 0, 0, {}], ["dropout_562", 0, 0, {}]]]}, {"class_name": "Concatenate", "config": {"name": "concatenate_188", "trainable": true, "dtype": "float32", "axis": -1}, "name": "concatenate_188", "inbound_nodes": [[["dropout_564", 0, 0, {}], ["dropout_565", 0, 0, {}]]]}, {"class_name": "Bidirectional", "config": {"name": "bidirectional_162", "trainable": true, "dtype": "float32", "layer": {"class_name": "GRU", "config": {"name": "gru_162", "trainable": true, "dtype": "float32", "return_sequences": true, "return_state": false, "go_backwards": false, "stateful": false, "unroll": false, "time_major": false, "units": 64, "activation": "tanh", "recurrent_activation": "sigmoid", "use_bias": true, "kernel_initializer": {"class_name": "GlorotUniform", "config": {"seed": null}, "shared_object_id": 630}, "recurrent_initializer": {"class_name": "Orthogonal", "config": {"gain": 1.0, "seed": null}, "shared_object_id": 631}, "bias_initializer": {"class_name": "Zeros", "config": {}, "shared_object_id": 632}, "kernel_regularizer": null, "recurrent_regularizer": null, "bias_regularizer": null, "activity_regularizer": null, "kernel_constraint": null, "recurrent_constraint": null, "bias_constraint": null, "dropout": 0.0, "recurrent_dropout": 0.0, "implementation": 2, "reset_after": true}}, "merge_mode": "concat"}, "name": "bidirectional_162", "inbound_nodes": [[["concatenate_171", 0, 0, {}]]]}, {"class_name": "Bidirectional", "config": {"name": "bidirectional_163", "trainable": true, "dtype": "float32", "layer": {"class_name": "GRU", "config": {"name": "gru_163", "trainable": true, "dtype": "float32", "return_sequences": true, "return_state": false, "go_backwards": false, "stateful": false, "unroll": false, "time_major": false, "units": 64, "activation": "tanh", "recurrent_activation": "sigmoid", "use_bias": true, "kernel_initializer": {"class_name": "GlorotUniform", "config": {"seed": null}, "shared_object_id": 636}, "recurrent_initializer": {"class_name": "Orthogonal", "config": {"gain": 1.0, "seed": null}, "shared_object_id": 637}, "bias_initializer": {"class_name": "Zeros", "config": {}, "shared_object_id": 638}, "kernel_regularizer": null, "recurrent_regularizer": null, "bias_regularizer": null, "activity_regularizer": null, "kernel_constraint": null, "recurrent_constraint": null, "bias_constraint": null, "dropout": 0.0, "recurrent_dropout": 0.0, "implementation": 2, "reset_after": true}}, "merge_mode": "concat"}, "name": "bidirectional_163", "inbound_nodes": [[["concatenate_172", 0, 0, {}]]]}, {"class_name": "Bidirectional", "config": {"name": "bidirectional_164", "trainable": true, "dtype": "float32", "layer": {"class_name": "GRU", "config": {"name": "gru_164", "trainable": true, "dtype": "float32", "return_sequences": true, "return_state": false, "go_backwards": false, "stateful": false, "unroll": false, "time_major": false, "units": 64, "activation": "tanh", "recurrent_activation": "sigmoid", "use_bias": true, "kernel_initializer": {"class_name": "GlorotUniform", "config": {"seed": null}, "shared_object_id": 642}, "recurrent_initializer": {"class_name": "Orthogonal", "config": {"gain": 1.0, "seed": null}, "shared_object_id": 643}, "bias_initializer": {"class_name": "Zeros", "config": {}, "shared_object_id": 644}, "kernel_regularizer": null, "recurrent_regularizer": null, "bias_regularizer": null, "activity_regularizer": null, "kernel_constraint": null, "recurrent_constraint": null, "bias_constraint": null, "dropout": 0.0, "recurrent_dropout": 0.0, "implementation": 2, "reset_after": true}}, "merge_mode": "concat"}, "name": "bidirectional_164", "inbound_nodes": [[["concatenate_173", 0, 0, {}]]]}, {"class_name": "Bidirectional", "config": {"name": "bidirectional_165", "trainable": true, "dtype": "float32", "layer": {"class_name": "GRU", "config": {"name": "gru_165", "trainable": true, "dtype": "float32", "return_sequences": true, "return_state": false, "go_backwards": false, "stateful": false, "unroll": false, "time_major": false, "units": 64, "activation": "tanh", "recurrent_activation": "sigmoid", "use_bias": true, "kernel_initializer": {"class_name": "GlorotUniform", "config": {"seed": null}, "shared_object_id": 648}, "recurrent_initializer": {"class_name": "Orthogonal", "config": {"gain": 1.0, "seed": null}, "shared_object_id": 649}, "bias_initializer": {"class_name": "Zeros", "config": {}, "shared_object_id": 650}, "kernel_regularizer": null, "recurrent_regularizer": null, "bias_regularizer": null, "activity_regularizer": null, "kernel_constraint": null, "recurrent_constraint": null, "bias_constraint": null, "dropout": 0.0, "recurrent_dropout": 0.0, "implementation": 2, "reset_after": true}}, "merge_mode": "concat"}, "name": "bidirectional_165", "inbound_nodes": [[["concatenate_174", 0, 0, {}]]]}, {"class_name": "Bidirectional", "config": {"name": "bidirectional_166", "trainable": true, "dtype": "float32", "layer": {"class_name": "GRU", "config": {"name": "gru_166", "trainable": true, "dtype": "float32", "return_sequences": true, "return_state": false, "go_backwards": false, "stateful": false, "unroll": false, "time_major": false, "units": 64, "activation": "tanh", "recurrent_activation": "sigmoid", "use_bias": true, "kernel_initializer": {"class_name": "GlorotUniform", "config": {"seed": null}, "shared_object_id": 654}, "recurrent_initializer": {"class_name": "Orthogonal", "config": {"gain": 1.0, "seed": null}, "shared_object_id": 655}, "bias_initializer": {"class_name": "Zeros", "config": {}, "shared_object_id": 656}, "kernel_regularizer": null, "recurrent_regularizer": null, "bias_regularizer": null, "activity_regularizer": null, "kernel_constraint": null, "recurrent_constraint": null, "bias_constraint": null, "dropout": 0.0, "recurrent_dropout": 0.0, "implementation": 2, "reset_after": true}}, "merge_mode": "concat"}, "name": "bidirectional_166", "inbound_nodes": [[["concatenate_175", 0, 0, {}]]]}, {"class_name": "Bidirectional", "config": {"name": "bidirectional_167", "trainable": true, "dtype": "float32", "layer": {"class_name": "GRU", "config": {"name": "gru_167", "trainable": true, "dtype": "float32", "return_sequences": true, "return_state": false, "go_backwards": false, "stateful": false, "unroll": false, "time_major": false, "units": 64, "activation": "tanh", "recurrent_activation": "sigmoid", "use_bias": true, "kernel_initializer": {"class_name": "GlorotUniform", "config": {"seed": null}, "shared_object_id": 660}, "recurrent_initializer": {"class_name": "Orthogonal", "config": {"gain": 1.0, "seed": null}, "shared_object_id": 661}, "bias_initializer": {"class_name": "Zeros", "config": {}, "shared_object_id": 662}, "kernel_regularizer": null, "recurrent_regularizer": null, "bias_regularizer": null, "activity_regularizer": null, "kernel_constraint": null, "recurrent_constraint": null, "bias_constraint": null, "dropout": 0.0, "recurrent_dropout": 0.0, "implementation": 2, "reset_after": true}}, "merge_mode": "concat"}, "name": "bidirectional_167", "inbound_nodes": [[["concatenate_176", 0, 0, {}]]]}, {"class_name": "Bidirectional", "config": {"name": "bidirectional_168", "trainable": true, "dtype": "float32", "layer": {"class_name": "GRU", "config": {"name": "gru_168", "trainable": true, "dtype": "float32", "return_sequences": true, "return_state": false, "go_backwards": false, "stateful": false, "unroll": false, "time_major": false, "units": 64, "activation": "tanh", "recurrent_activation": "sigmoid", "use_bias": true, "kernel_initializer": {"class_name": "GlorotUniform", "config": {"seed": null}, "shared_object_id": 666}, "recurrent_initializer": {"class_name": "Orthogonal", "config": {"gain": 1.0, "seed": null}, "shared_object_id": 667}, "bias_initializer": {"class_name": "Zeros", "config": {}, "shared_object_id": 668}, "kernel_regularizer": null, "recurrent_regularizer": null, "bias_regularizer": null, "activity_regularizer": null, "kernel_constraint": null, "recurrent_constraint": null, "bias_constraint": null, "dropout": 0.0, "recurrent_dropout": 0.0, "implementation": 2, "reset_after": true}}, "merge_mode": "concat"}, "name": "bidirectional_168", "inbound_nodes": [[["concatenate_177", 0, 0, {}]]]}, {"class_name": "Bidirectional", "config": {"name": "bidirectional_169", "trainable": true, "dtype": "float32", "layer": {"class_name": "GRU", "config": {"name": "gru_169", "trainable": true, "dtype": "float32", "return_sequences": true, "return_state": false, "go_backwards": false, "stateful": false, "unroll": false, "time_major": false, "units": 64, "activation": "tanh", "recurrent_activation": "sigmoid", "use_bias": true, "kernel_initializer": {"class_name": "GlorotUniform", "config": {"seed": null}, "shared_object_id": 672}, "recurrent_initializer": {"class_name": "Orthogonal", "config": {"gain": 1.0, "seed": null}, "shared_object_id": 673}, "bias_initializer": {"class_name": "Zeros", "config": {}, "shared_object_id": 674}, "kernel_regularizer": null, "recurrent_regularizer": null, "bias_regularizer": null, "activity_regularizer": null, "kernel_constraint": null, "recurrent_constraint": null, "bias_constraint": null, "dropout": 0.0, "recurrent_dropout": 0.0, "implementation": 2, "reset_after": true}}, "merge_mode": "concat"}, "name": "bidirectional_169", "inbound_nodes": [[["concatenate_178", 0, 0, {}]]]}, {"class_name": "Bidirectional", "config": {"name": "bidirectional_170", "trainable": true, "dtype": "float32", "layer": {"class_name": "GRU", "config": {"name": "gru_170", "trainable": true, "dtype": "float32", "return_sequences": true, "return_state": false, "go_backwards": false, "stateful": false, "unroll": false, "time_major": false, "units": 64, "activation": "tanh", "recurrent_activation": "sigmoid", "use_bias": true, "kernel_initializer": {"class_name": "GlorotUniform", "config": {"seed": null}, "shared_object_id": 678}, "recurrent_initializer": {"class_name": "Orthogonal", "config": {"gain": 1.0, "seed": null}, "shared_object_id": 679}, "bias_initializer": {"class_name": "Zeros", "config": {}, "shared_object_id": 680}, "kernel_regularizer": null, "recurrent_regularizer": null, "bias_regularizer": null, "activity_regularizer": null, "kernel_constraint": null, "recurrent_constraint": null, "bias_constraint": null, "dropout": 0.0, "recurrent_dropout": 0.0, "implementation": 2, "reset_after": true}}, "merge_mode": "concat"}, "name": "bidirectional_170", "inbound_nodes": [[["concatenate_179", 0, 0, {}]]]}, {"class_name": "Bidirectional", "config": {"name": "bidirectional_171", "trainable": true, "dtype": "float32", "layer": {"class_name": "GRU", "config": {"name": "gru_171", "trainable": true, "dtype": "float32", "return_sequences": true, "return_state": false, "go_backwards": false, "stateful": false, "unroll": false, "time_major": false, "units": 64, "activation": "tanh", "recurrent_activation": "sigmoid", "use_bias": true, "kernel_initializer": {"class_name": "GlorotUniform", "config": {"seed": null}, "shared_object_id": 684}, "recurrent_initializer": {"class_name": "Orthogonal", "config": {"gain": 1.0, "seed": null}, "shared_object_id": 685}, "bias_initializer": {"class_name": "Zeros", "config": {}, "shared_object_id": 686}, "kernel_regularizer": null, "recurrent_regularizer": null, "bias_regularizer": null, "activity_regularizer": null, "kernel_constraint": null, "recurrent_constraint": null, "bias_constraint": null, "dropout": 0.0, "recurrent_dropout": 0.0, "implementation": 2, "reset_after": true}}, "merge_mode": "concat"}, "name": "bidirectional_171", "inbound_nodes": [[["concatenate_180", 0, 0, {}]]]}, {"class_name": "Bidirectional", "config": {"name": "bidirectional_172", "trainable": true, "dtype": "float32", "layer": {"class_name": "GRU", "config": {"name": "gru_172", "trainable": true, "dtype": "float32", "return_sequences": true, "return_state": false, "go_backwards": false, "stateful": false, "unroll": false, "time_major": false, "units": 64, "activation": "tanh", "recurrent_activation": "sigmoid", "use_bias": true, "kernel_initializer": {"class_name": "GlorotUniform", "config": {"seed": null}, "shared_object_id": 690}, "recurrent_initializer": {"class_name": "Orthogonal", "config": {"gain": 1.0, "seed": null}, "shared_object_id": 691}, "bias_initializer": {"class_name": "Zeros", "config": {}, "shared_object_id": 692}, "kernel_regularizer": null, "recurrent_regularizer": null, "bias_regularizer": null, "activity_regularizer": null, "kernel_constraint": null, "recurrent_constraint": null, "bias_constraint": null, "dropout": 0.0, "recurrent_dropout": 0.0, "implementation": 2, "reset_after": true}}, "merge_mode": "concat"}, "name": "bidirectional_172", "inbound_nodes": [[["concatenate_181", 0, 0, {}]]]}, {"class_name": "Bidirectional", "config": {"name": "bidirectional_173", "trainable": true, "dtype": "float32", "layer": {"class_name": "GRU", "config": {"name": "gru_173", "trainable": true, "dtype": "float32", "return_sequences": true, "return_state": false, "go_backwards": false, "stateful": false, "unroll": false, "time_major": false, "units": 64, "activation": "tanh", "recurrent_activation": "sigmoid", "use_bias": true, "kernel_initializer": {"class_name": "GlorotUniform", "config": {"seed": null}, "shared_object_id": 696}, "recurrent_initializer": {"class_name": "Orthogonal", "config": {"gain": 1.0, "seed": null}, "shared_object_id": 697}, "bias_initializer": {"class_name": "Zeros", "config": {}, "shared_object_id": 698}, "kernel_regularizer": null, "recurrent_regularizer": null, "bias_regularizer": null, "activity_regularizer": null, "kernel_constraint": null, "recurrent_constraint": null, "bias_constraint": null, "dropout": 0.0, "recurrent_dropout": 0.0, "implementation": 2, "reset_after": true}}, "merge_mode": "concat"}, "name": "bidirectional_173", "inbound_nodes": [[["concatenate_182", 0, 0, {}]]]}, {"class_name": "Bidirectional", "config": {"name": "bidirectional_174", "trainable": true, "dtype": "float32", "layer": {"class_name": "GRU", "config": {"name": "gru_174", "trainable": true, "dtype": "float32", "return_sequences": true, "return_state": false, "go_backwards": false, "stateful": false, "unroll": false, "time_major": false, "units": 64, "activation": "tanh", "recurrent_activation": "sigmoid", "use_bias": true, "kernel_initializer": {"class_name": "GlorotUniform", "config": {"seed": null}, "shared_object_id": 702}, "recurrent_initializer": {"class_name": "Orthogonal", "config": {"gain": 1.0, "seed": null}, "shared_object_id": 703}, "bias_initializer": {"class_name": "Zeros", "config": {}, "shared_object_id": 704}, "kernel_regularizer": null, "recurrent_regularizer": null, "bias_regularizer": null, "activity_regularizer": null, "kernel_constraint": null, "recurrent_constraint": null, "bias_constraint": null, "dropout": 0.0, "recurrent_dropout": 0.0, "implementation": 2, "reset_after": true}}, "merge_mode": "concat"}, "name": "bidirectional_174", "inbound_nodes": [[["concatenate_183", 0, 0, {}]]]}, {"class_name": "Bidirectional", "config": {"name": "bidirectional_175", "trainable": true, "dtype": "float32", "layer": {"class_name": "GRU", "config": {"name": "gru_175", "trainable": true, "dtype": "float32", "return_sequences": true, "return_state": false, "go_backwards": false, "stateful": false, "unroll": false, "time_major": false, "units": 64, "activation": "tanh", "recurrent_activation": "sigmoid", "use_bias": true, "kernel_initializer": {"class_name": "GlorotUniform", "config": {"seed": null}, "shared_object_id": 708}, "recurrent_initializer": {"class_name": "Orthogonal", "config": {"gain": 1.0, "seed": null}, "shared_object_id": 709}, "bias_initializer": {"class_name": "Zeros", "config": {}, "shared_object_id": 710}, "kernel_regularizer": null, "recurrent_regularizer": null, "bias_regularizer": null, "activity_regularizer": null, "kernel_constraint": null, "recurrent_constraint": null, "bias_constraint": null, "dropout": 0.0, "recurrent_dropout": 0.0, "implementation": 2, "reset_after": true}}, "merge_mode": "concat"}, "name": "bidirectional_175", "inbound_nodes": [[["concatenate_184", 0, 0, {}]]]}, {"class_name": "Bidirectional", "config": {"name": "bidirectional_176", "trainable": true, "dtype": "float32", "layer": {"class_name": "GRU", "config": {"name": "gru_176", "trainable": true, "dtype": "float32", "return_sequences": true, "return_state": false, "go_backwards": false, "stateful": false, "unroll": false, "time_major": false, "units": 64, "activation": "tanh", "recurrent_activation": "sigmoid", "use_bias": true, "kernel_initializer": {"class_name": "GlorotUniform", "config": {"seed": null}, "shared_object_id": 714}, "recurrent_initializer": {"class_name": "Orthogonal", "config": {"gain": 1.0, "seed": null}, "shared_object_id": 715}, "bias_initializer": {"class_name": "Zeros", "config": {}, "shared_object_id": 716}, "kernel_regularizer": null, "recurrent_regularizer": null, "bias_regularizer": null, "activity_regularizer": null, "kernel_constraint": null, "recurrent_constraint": null, "bias_constraint": null, "dropout": 0.0, "recurrent_dropout": 0.0, "implementation": 2, "reset_after": true}}, "merge_mode": "concat"}, "name": "bidirectional_176", "inbound_nodes": [[["concatenate_185", 0, 0, {}]]]}, {"class_name": "Bidirectional", "config": {"name": "bidirectional_177", "trainable": true, "dtype": "float32", "layer": {"class_name": "GRU", "config": {"name": "gru_177", "trainable": true, "dtype": "float32", "return_sequences": true, "return_state": false, "go_backwards": false, "stateful": false, "unroll": false, "time_major": false, "units": 64, "activation": "tanh", "recurrent_activation": "sigmoid", "use_bias": true, "kernel_initializer": {"class_name": "GlorotUniform", "config": {"seed": null}, "shared_object_id": 720}, "recurrent_initializer": {"class_name": "Orthogonal", "config": {"gain": 1.0, "seed": null}, "shared_object_id": 721}, "bias_initializer": {"class_name": "Zeros", "config": {}, "shared_object_id": 722}, "kernel_regularizer": null, "recurrent_regularizer": null, "bias_regularizer": null, "activity_regularizer": null, "kernel_constraint": null, "recurrent_constraint": null, "bias_constraint": null, "dropout": 0.0, "recurrent_dropout": 0.0, "implementation": 2, "reset_after": true}}, "merge_mode": "concat"}, "name": "bidirectional_177", "inbound_nodes": [[["concatenate_186", 0, 0, {}]]]}, {"class_name": "Bidirectional", "config": {"name": "bidirectional_178", "trainable": true, "dtype": "float32", "layer": {"class_name": "GRU", "config": {"name": "gru_178", "trainable": true, "dtype": "float32", "return_sequences": true, "return_state": false, "go_backwards": false, "stateful": false, "unroll": false, "time_major": false, "units": 64, "activation": "tanh", "recurrent_activation": "sigmoid", "use_bias": true, "kernel_initializer": {"class_name": "GlorotUniform", "config": {"seed": null}, "shared_object_id": 726}, "recurrent_initializer": {"class_name": "Orthogonal", "config": {"gain": 1.0, "seed": null}, "shared_object_id": 727}, "bias_initializer": {"class_name": "Zeros", "config": {}, "shared_object_id": 728}, "kernel_regularizer": null, "recurrent_regularizer": null, "bias_regularizer": null, "activity_regularizer": null, "kernel_constraint": null, "recurrent_constraint": null, "bias_constraint": null, "dropout": 0.0, "recurrent_dropout": 0.0, "implementation": 2, "reset_after": true}}, "merge_mode": "concat"}, "name": "bidirectional_178", "inbound_nodes": [[["concatenate_187", 0, 0, {}]]]}, {"class_name": "Bidirectional", "config": {"name": "bidirectional_179", "trainable": true, "dtype": "float32", "layer": {"class_name": "GRU", "config": {"name": "gru_179", "trainable": true, "dtype": "float32", "return_sequences": true, "return_state": false, "go_backwards": false, "stateful": false, "unroll": false, "time_major": false, "units": 64, "activation": "tanh", "recurrent_activation": "sigmoid", "use_bias": true, "kernel_initializer": {"class_name": "GlorotUniform", "config": {"seed": null}, "shared_object_id": 732}, "recurrent_initializer": {"class_name": "Orthogonal", "config": {"gain": 1.0, "seed": null}, "shared_object_id": 733}, "bias_initializer": {"class_name": "Zeros", "config": {}, "shared_object_id": 734}, "kernel_regularizer": null, "recurrent_regularizer": null, "bias_regularizer": null, "activity_regularizer": null, "kernel_constraint": null, "recurrent_constraint": null, "bias_constraint": null, "dropout": 0.0, "recurrent_dropout": 0.0, "implementation": 2, "reset_after": true}}, "merge_mode": "concat"}, "name": "bidirectional_179", "inbound_nodes": [[["concatenate_188", 0, 0, {}]]]}, {"class_name": "BatchNormalization", "config": {"name": "batch_normalization_488", "trainable": true, "dtype": "float32", "axis": [2], "momentum": 0.99, "epsilon": 0.001, "center": true, "scale": true, "beta_initializer": {"class_name": "Zeros", "config": {}}, "gamma_initializer": {"class_name": "Ones", "config": {}}, "moving_mean_initializer": {"class_name": "Zeros", "config": {}}, "moving_variance_initializer": {"class_name": "Ones", "config": {}}, "beta_regularizer": null, "gamma_regularizer": null, "beta_constraint": null, "gamma_constraint": null}, "name": "batch_normalization_488", "inbound_nodes": [[["bidirectional_162", 0, 0, {}]]]}, {"class_name": "BatchNormalization", "config": {"name": "batch_normalization_491", "trainable": true, "dtype": "float32", "axis": [2], "momentum": 0.99, "epsilon": 0.001, "center": true, "scale": true, "beta_initializer": {"class_name": "Zeros", "config": {}}, "gamma_initializer": {"class_name": "Ones", "config": {}}, "moving_mean_initializer": {"class_name": "Zeros", "config": {}}, "moving_variance_initializer": {"class_name": "Ones", "config": {}}, "beta_regularizer": null, "gamma_regularizer": null, "beta_constraint": null, "gamma_constraint": null}, "name": "batch_normalization_491", "inbound_nodes": [[["bidirectional_163", 0, 0, {}]]]}, {"class_name": "BatchNormalization", "config": {"name": "batch_normalization_494", "trainable": true, "dtype": "float32", "axis": [2], "momentum": 0.99, "epsilon": 0.001, "center": true, "scale": true, "beta_initializer": {"class_name": "Zeros", "config": {}}, "gamma_initializer": {"class_name": "Ones", "config": {}}, "moving_mean_initializer": {"class_name": "Zeros", "config": {}}, "moving_variance_initializer": {"class_name": "Ones", "config": {}}, "beta_regularizer": null, "gamma_regularizer": null, "beta_constraint": null, "gamma_constraint": null}, "name": "batch_normalization_494", "inbound_nodes": [[["bidirectional_164", 0, 0, {}]]]}, {"class_name": "BatchNormalization", "config": {"name": "batch_normalization_497", "trainable": true, "dtype": "float32", "axis": [2], "momentum": 0.99, "epsilon": 0.001, "center": true, "scale": true, "beta_initializer": {"class_name": "Zeros", "config": {}}, "gamma_initializer": {"class_name": "Ones", "config": {}}, "moving_mean_initializer": {"class_name": "Zeros", "config": {}}, "moving_variance_initializer": {"class_name": "Ones", "config": {}}, "beta_regularizer": null, "gamma_regularizer": null, "beta_constraint": null, "gamma_constraint": null}, "name": "batch_normalization_497", "inbound_nodes": [[["bidirectional_165", 0, 0, {}]]]}, {"class_name": "BatchNormalization", "config": {"name": "batch_normalization_500", "trainable": true, "dtype": "float32", "axis": [2], "momentum": 0.99, "epsilon": 0.001, "center": true, "scale": true, "beta_initializer": {"class_name": "Zeros", "config": {}}, "gamma_initializer": {"class_name": "Ones", "config": {}}, "moving_mean_initializer": {"class_name": "Zeros", "config": {}}, "moving_variance_initializer": {"class_name": "Ones", "config": {}}, "beta_regularizer": null, "gamma_regularizer": null, "beta_constraint": null, "gamma_constraint": null}, "name": "batch_normalization_500", "inbound_nodes": [[["bidirectional_166", 0, 0, {}]]]}, {"class_name": "BatchNormalization", "config": {"name": "batch_normalization_503", "trainable": true, "dtype": "float32", "axis": [2], "momentum": 0.99, "epsilon": 0.001, "center": true, "scale": true, "beta_initializer": {"class_name": "Zeros", "config": {}}, "gamma_initializer": {"class_name": "Ones", "config": {}}, "moving_mean_initializer": {"class_name": "Zeros", "config": {}}, "moving_variance_initializer": {"class_name": "Ones", "config": {}}, "beta_regularizer": null, "gamma_regularizer": null, "beta_constraint": null, "gamma_constraint": null}, "name": "batch_normalization_503", "inbound_nodes": [[["bidirectional_167", 0, 0, {}]]]}, {"class_name": "BatchNormalization", "config": {"name": "batch_normalization_506", "trainable": true, "dtype": "float32", "axis": [2], "momentum": 0.99, "epsilon": 0.001, "center": true, "scale": true, "beta_initializer": {"class_name": "Zeros", "config": {}}, "gamma_initializer": {"class_name": "Ones", "config": {}}, "moving_mean_initializer": {"class_name": "Zeros", "config": {}}, "moving_variance_initializer": {"class_name": "Ones", "config": {}}, "beta_regularizer": null, "gamma_regularizer": null, "beta_constraint": null, "gamma_constraint": null}, "name": "batch_normalization_506", "inbound_nodes": [[["bidirectional_168", 0, 0, {}]]]}, {"class_name": "BatchNormalization", "config": {"name": "batch_normalization_509", "trainable": true, "dtype": "float32", "axis": [2], "momentum": 0.99, "epsilon": 0.001, "center": true, "scale": true, "beta_initializer": {"class_name": "Zeros", "config": {}}, "gamma_initializer": {"class_name": "Ones", "config": {}}, "moving_mean_initializer": {"class_name": "Zeros", "config": {}}, "moving_variance_initializer": {"class_name": "Ones", "config": {}}, "beta_regularizer": null, "gamma_regularizer": null, "beta_constraint": null, "gamma_constraint": null}, "name": "batch_normalization_509", "inbound_nodes": [[["bidirectional_169", 0, 0, {}]]]}, {"class_name": "BatchNormalization", "config": {"name": "batch_normalization_512", "trainable": true, "dtype": "float32", "axis": [2], "momentum": 0.99, "epsilon": 0.001, "center": true, "scale": true, "beta_initializer": {"class_name": "Zeros", "config": {}}, "gamma_initializer": {"class_name": "Ones", "config": {}}, "moving_mean_initializer": {"class_name": "Zeros", "config": {}}, "moving_variance_initializer": {"class_name": "Ones", "config": {}}, "beta_regularizer": null, "gamma_regularizer": null, "beta_constraint": null, "gamma_constraint": null}, "name": "batch_normalization_512", "inbound_nodes": [[["bidirectional_170", 0, 0, {}]]]}, {"class_name": "BatchNormalization", "config": {"name": "batch_normalization_515", "trainable": true, "dtype": "float32", "axis": [2], "momentum": 0.99, "epsilon": 0.001, "center": true, "scale": true, "beta_initializer": {"class_name": "Zeros", "config": {}}, "gamma_initializer": {"class_name": "Ones", "config": {}}, "moving_mean_initializer": {"class_name": "Zeros", "config": {}}, "moving_variance_initializer": {"class_name": "Ones", "config": {}}, "beta_regularizer": null, "gamma_regularizer": null, "beta_constraint": null, "gamma_constraint": null}, "name": "batch_normalization_515", "inbound_nodes": [[["bidirectional_171", 0, 0, {}]]]}, {"class_name": "BatchNormalization", "config": {"name": "batch_normalization_518", "trainable": true, "dtype": "float32", "axis": [2], "momentum": 0.99, "epsilon": 0.001, "center": true, "scale": true, "beta_initializer": {"class_name": "Zeros", "config": {}}, "gamma_initializer": {"class_name": "Ones", "config": {}}, "moving_mean_initializer": {"class_name": "Zeros", "config": {}}, "moving_variance_initializer": {"class_name": "Ones", "config": {}}, "beta_regularizer": null, "gamma_regularizer": null, "beta_constraint": null, "gamma_constraint": null}, "name": "batch_normalization_518", "inbound_nodes": [[["bidirectional_172", 0, 0, {}]]]}, {"class_name": "BatchNormalization", "config": {"name": "batch_normalization_521", "trainable": true, "dtype": "float32", "axis": [2], "momentum": 0.99, "epsilon": 0.001, "center": true, "scale": true, "beta_initializer": {"class_name": "Zeros", "config": {}}, "gamma_initializer": {"class_name": "Ones", "config": {}}, "moving_mean_initializer": {"class_name": "Zeros", "config": {}}, "moving_variance_initializer": {"class_name": "Ones", "config": {}}, "beta_regularizer": null, "gamma_regularizer": null, "beta_constraint": null, "gamma_constraint": null}, "name": "batch_normalization_521", "inbound_nodes": [[["bidirectional_173", 0, 0, {}]]]}, {"class_name": "BatchNormalization", "config": {"name": "batch_normalization_524", "trainable": true, "dtype": "float32", "axis": [2], "momentum": 0.99, "epsilon": 0.001, "center": true, "scale": true, "beta_initializer": {"class_name": "Zeros", "config": {}}, "gamma_initializer": {"class_name": "Ones", "config": {}}, "moving_mean_initializer": {"class_name": "Zeros", "config": {}}, "moving_variance_initializer": {"class_name": "Ones", "config": {}}, "beta_regularizer": null, "gamma_regularizer": null, "beta_constraint": null, "gamma_constraint": null}, "name": "batch_normalization_524", "inbound_nodes": [[["bidirectional_174", 0, 0, {}]]]}, {"class_name": "BatchNormalization", "config": {"name": "batch_normalization_527", "trainable": true, "dtype": "float32", "axis": [2], "momentum": 0.99, "epsilon": 0.001, "center": true, "scale": true, "beta_initializer": {"class_name": "Zeros", "config": {}}, "gamma_initializer": {"class_name": "Ones", "config": {}}, "moving_mean_initializer": {"class_name": "Zeros", "config": {}}, "moving_variance_initializer": {"class_name": "Ones", "config": {}}, "beta_regularizer": null, "gamma_regularizer": null, "beta_constraint": null, "gamma_constraint": null}, "name": "batch_normalization_527", "inbound_nodes": [[["bidirectional_175", 0, 0, {}]]]}, {"class_name": "BatchNormalization", "config": {"name": "batch_normalization_530", "trainable": true, "dtype": "float32", "axis": [2], "momentum": 0.99, "epsilon": 0.001, "center": true, "scale": true, "beta_initializer": {"class_name": "Zeros", "config": {}}, "gamma_initializer": {"class_name": "Ones", "config": {}}, "moving_mean_initializer": {"class_name": "Zeros", "config": {}}, "moving_variance_initializer": {"class_name": "Ones", "config": {}}, "beta_regularizer": null, "gamma_regularizer": null, "beta_constraint": null, "gamma_constraint": null}, "name": "batch_normalization_530", "inbound_nodes": [[["bidirectional_176", 0, 0, {}]]]}, {"class_name": "BatchNormalization", "config": {"name": "batch_normalization_533", "trainable": true, "dtype": "float32", "axis": [2], "momentum": 0.99, "epsilon": 0.001, "center": true, "scale": true, "beta_initializer": {"class_name": "Zeros", "config": {}}, "gamma_initializer": {"class_name": "Ones", "config": {}}, "moving_mean_initializer": {"class_name": "Zeros", "config": {}}, "moving_variance_initializer": {"class_name": "Ones", "config": {}}, "beta_regularizer": null, "gamma_regularizer": null, "beta_constraint": null, "gamma_constraint": null}, "name": "batch_normalization_533", "inbound_nodes": [[["bidirectional_177", 0, 0, {}]]]}, {"class_name": "BatchNormalization", "config": {"name": "batch_normalization_536", "trainable": true, "dtype": "float32", "axis": [2], "momentum": 0.99, "epsilon": 0.001, "center": true, "scale": true, "beta_initializer": {"class_name": "Zeros", "config": {}}, "gamma_initializer": {"class_name": "Ones", "config": {}}, "moving_mean_initializer": {"class_name": "Zeros", "config": {}}, "moving_variance_initializer": {"class_name": "Ones", "config": {}}, "beta_regularizer": null, "gamma_regularizer": null, "beta_constraint": null, "gamma_constraint": null}, "name": "batch_normalization_536", "inbound_nodes": [[["bidirectional_178", 0, 0, {}]]]}, {"class_name": "BatchNormalization", "config": {"name": "batch_normalization_539", "trainable": true, "dtype": "float32", "axis": [2], "momentum": 0.99, "epsilon": 0.001, "center": true, "scale": true, "beta_initializer": {"class_name": "Zeros", "config": {}}, "gamma_initializer": {"class_name": "Ones", "config": {}}, "moving_mean_initializer": {"class_name": "Zeros", "config": {}}, "moving_variance_initializer": {"class_name": "Ones", "config": {}}, "beta_regularizer": null, "gamma_regularizer": null, "beta_constraint": null, "gamma_constraint": null}, "name": "batch_normalization_539", "inbound_nodes": [[["bidirectional_179", 0, 0, {}]]]}, {"class_name": "Dropout", "config": {"name": "dropout_515", "trainable": true, "dtype": "float32", "rate": 0.4, "noise_shape": null, "seed": null}, "name": "dropout_515", "inbound_nodes": [[["batch_normalization_488", 0, 0, {}]]]}, {"class_name": "Dropout", "config": {"name": "dropout_518", "trainable": true, "dtype": "float32", "rate": 0.4, "noise_shape": null, "seed": null}, "name": "dropout_518", "inbound_nodes": [[["batch_normalization_491", 0, 0, {}]]]}, {"class_name": "Dropout", "config": {"name": "dropout_521", "trainable": true, "dtype": "float32", "rate": 0.4, "noise_shape": null, "seed": null}, "name": "dropout_521", "inbound_nodes": [[["batch_normalization_494", 0, 0, {}]]]}, {"class_name": "Dropout", "config": {"name": "dropout_524", "trainable": true, "dtype": "float32", "rate": 0.4, "noise_shape": null, "seed": null}, "name": "dropout_524", "inbound_nodes": [[["batch_normalization_497", 0, 0, {}]]]}, {"class_name": "Dropout", "config": {"name": "dropout_527", "trainable": true, "dtype": "float32", "rate": 0.4, "noise_shape": null, "seed": null}, "name": "dropout_527", "inbound_nodes": [[["batch_normalization_500", 0, 0, {}]]]}, {"class_name": "Dropout", "config": {"name": "dropout_530", "trainable": true, "dtype": "float32", "rate": 0.4, "noise_shape": null, "seed": null}, "name": "dropout_530", "inbound_nodes": [[["batch_normalization_503", 0, 0, {}]]]}, {"class_name": "Dropout", "config": {"name": "dropout_533", "trainable": true, "dtype": "float32", "rate": 0.4, "noise_shape": null, "seed": null}, "name": "dropout_533", "inbound_nodes": [[["batch_normalization_506", 0, 0, {}]]]}, {"class_name": "Dropout", "config": {"name": "dropout_536", "trainable": true, "dtype": "float32", "rate": 0.4, "noise_shape": null, "seed": null}, "name": "dropout_536", "inbound_nodes": [[["batch_normalization_509", 0, 0, {}]]]}, {"class_name": "Dropout", "config": {"name": "dropout_539", "trainable": true, "dtype": "float32", "rate": 0.4, "noise_shape": null, "seed": null}, "name": "dropout_539", "inbound_nodes": [[["batch_normalization_512", 0, 0, {}]]]}, {"class_name": "Dropout", "config": {"name": "dropout_542", "trainable": true, "dtype": "float32", "rate": 0.4, "noise_shape": null, "seed": null}, "name": "dropout_542", "inbound_nodes": [[["batch_normalization_515", 0, 0, {}]]]}, {"class_name": "Dropout", "config": {"name": "dropout_545", "trainable": true, "dtype": "float32", "rate": 0.4, "noise_shape": null, "seed": null}, "name": "dropout_545", "inbound_nodes": [[["batch_normalization_518", 0, 0, {}]]]}, {"class_name": "Dropout", "config": {"name": "dropout_548", "trainable": true, "dtype": "float32", "rate": 0.4, "noise_shape": null, "seed": null}, "name": "dropout_548", "inbound_nodes": [[["batch_normalization_521", 0, 0, {}]]]}, {"class_name": "Dropout", "config": {"name": "dropout_551", "trainable": true, "dtype": "float32", "rate": 0.4, "noise_shape": null, "seed": null}, "name": "dropout_551", "inbound_nodes": [[["batch_normalization_524", 0, 0, {}]]]}, {"class_name": "Dropout", "config": {"name": "dropout_554", "trainable": true, "dtype": "float32", "rate": 0.4, "noise_shape": null, "seed": null}, "name": "dropout_554", "inbound_nodes": [[["batch_normalization_527", 0, 0, {}]]]}, {"class_name": "Dropout", "config": {"name": "dropout_557", "trainable": true, "dtype": "float32", "rate": 0.4, "noise_shape": null, "seed": null}, "name": "dropout_557", "inbound_nodes": [[["batch_normalization_530", 0, 0, {}]]]}, {"class_name": "Dropout", "config": {"name": "dropout_560", "trainable": true, "dtype": "float32", "rate": 0.4, "noise_shape": null, "seed": null}, "name": "dropout_560", "inbound_nodes": [[["batch_normalization_533", 0, 0, {}]]]}, {"class_name": "Dropout", "config": {"name": "dropout_563", "trainable": true, "dtype": "float32", "rate": 0.4, "noise_shape": null, "seed": null}, "name": "dropout_563", "inbound_nodes": [[["batch_normalization_536", 0, 0, {}]]]}, {"class_name": "Dropout", "config": {"name": "dropout_566", "trainable": true, "dtype": "float32", "rate": 0.4, "noise_shape": null, "seed": null}, "name": "dropout_566", "inbound_nodes": [[["batch_normalization_539", 0, 0, {}]]]}, {"class_name": "Flatten", "config": {"name": "flatten_162", "trainable": true, "dtype": "float32", "data_format": "channels_last"}, "name": "flatten_162", "inbound_nodes": [[["dropout_515", 0, 0, {}]]]}, {"class_name": "Flatten", "config": {"name": "flatten_163", "trainable": true, "dtype": "float32", "data_format": "channels_last"}, "name": "flatten_163", "inbound_nodes": [[["dropout_518", 0, 0, {}]]]}, {"class_name": "Flatten", "config": {"name": "flatten_164", "trainable": true, "dtype": "float32", "data_format": "channels_last"}, "name": "flatten_164", "inbound_nodes": [[["dropout_521", 0, 0, {}]]]}, {"class_name": "Flatten", "config": {"name": "flatten_165", "trainable": true, "dtype": "float32", "data_format": "channels_last"}, "name": "flatten_165", "inbound_nodes": [[["dropout_524", 0, 0, {}]]]}, {"class_name": "Flatten", "config": {"name": "flatten_166", "trainable": true, "dtype": "float32", "data_format": "channels_last"}, "name": "flatten_166", "inbound_nodes": [[["dropout_527", 0, 0, {}]]]}, {"class_name": "Flatten", "config": {"name": "flatten_167", "trainable": true, "dtype": "float32", "data_format": "channels_last"}, "name": "flatten_167", "inbound_nodes": [[["dropout_530", 0, 0, {}]]]}, {"class_name": "Flatten", "config": {"name": "flatten_168", "trainable": true, "dtype": "float32", "data_format": "channels_last"}, "name": "flatten_168", "inbound_nodes": [[["dropout_533", 0, 0, {}]]]}, {"class_name": "Flatten", "config": {"name": "flatten_169", "trainable": true, "dtype": "float32", "data_format": "channels_last"}, "name": "flatten_169", "inbound_nodes": [[["dropout_536", 0, 0, {}]]]}, {"class_name": "Flatten", "config": {"name": "flatten_170", "trainable": true, "dtype": "float32", "data_format": "channels_last"}, "name": "flatten_170", "inbound_nodes": [[["dropout_539", 0, 0, {}]]]}, {"class_name": "Flatten", "config": {"name": "flatten_171", "trainable": true, "dtype": "float32", "data_format": "channels_last"}, "name": "flatten_171", "inbound_nodes": [[["dropout_542", 0, 0, {}]]]}, {"class_name": "Flatten", "config": {"name": "flatten_172", "trainable": true, "dtype": "float32", "data_format": "channels_last"}, "name": "flatten_172", "inbound_nodes": [[["dropout_545", 0, 0, {}]]]}, {"class_name": "Flatten", "config": {"name": "flatten_173", "trainable": true, "dtype": "float32", "data_format": "channels_last"}, "name": "flatten_173", "inbound_nodes": [[["dropout_548", 0, 0, {}]]]}, {"class_name": "Flatten", "config": {"name": "flatten_174", "trainable": true, "dtype": "float32", "data_format": "channels_last"}, "name": "flatten_174", "inbound_nodes": [[["dropout_551", 0, 0, {}]]]}, {"class_name": "Flatten", "config": {"name": "flatten_175", "trainable": true, "dtype": "float32", "data_format": "channels_last"}, "name": "flatten_175", "inbound_nodes": [[["dropout_554", 0, 0, {}]]]}, {"class_name": "Flatten", "config": {"name": "flatten_176", "trainable": true, "dtype": "float32", "data_format": "channels_last"}, "name": "flatten_176", "inbound_nodes": [[["dropout_557", 0, 0, {}]]]}, {"class_name": "Flatten", "config": {"name": "flatten_177", "trainable": true, "dtype": "float32", "data_format": "channels_last"}, "name": "flatten_177", "inbound_nodes": [[["dropout_560", 0, 0, {}]]]}, {"class_name": "Flatten", "config": {"name": "flatten_178", "trainable": true, "dtype": "float32", "data_format": "channels_last"}, "name": "flatten_178", "inbound_nodes": [[["dropout_563", 0, 0, {}]]]}, {"class_name": "Flatten", "config": {"name": "flatten_179", "trainable": true, "dtype": "float32", "data_format": "channels_last"}, "name": "flatten_179", "inbound_nodes": [[["dropout_566", 0, 0, {}]]]}, {"class_name": "Dense", "config": {"name": "dense_515", "trainable": true, "dtype": "float32", "units": 50, "activation": "elu", "use_bias": true, "kernel_initializer": {"class_name": "GlorotUniform", "config": {"seed": null}}, "bias_initializer": {"class_name": "Zeros", "config": {}}, "kernel_regularizer": null, "bias_regularizer": null, "activity_regularizer": null, "kernel_constraint": null, "bias_constraint": null}, "name": "dense_515", "inbound_nodes": [[["flatten_162", 0, 0, {}]]]}, {"class_name": "Dense", "config": {"name": "dense_518", "trainable": true, "dtype": "float32", "units": 50, "activation": "elu", "use_bias": true, "kernel_initializer": {"class_name": "GlorotUniform", "config": {"seed": null}}, "bias_initializer": {"class_name": "Zeros", "config": {}}, "kernel_regularizer": null, "bias_regularizer": null, "activity_regularizer": null, "kernel_constraint": null, "bias_constraint": null}, "name": "dense_518", "inbound_nodes": [[["flatten_163", 0, 0, {}]]]}, {"class_name": "Dense", "config": {"name": "dense_521", "trainable": true, "dtype": "float32", "units": 50, "activation": "elu", "use_bias": true, "kernel_initializer": {"class_name": "GlorotUniform", "config": {"seed": null}}, "bias_initializer": {"class_name": "Zeros", "config": {}}, "kernel_regularizer": null, "bias_regularizer": null, "activity_regularizer": null, "kernel_constraint": null, "bias_constraint": null}, "name": "dense_521", "inbound_nodes": [[["flatten_164", 0, 0, {}]]]}, {"class_name": "Dense", "config": {"name": "dense_524", "trainable": true, "dtype": "float32", "units": 50, "activation": "elu", "use_bias": true, "kernel_initializer": {"class_name": "GlorotUniform", "config": {"seed": null}}, "bias_initializer": {"class_name": "Zeros", "config": {}}, "kernel_regularizer": null, "bias_regularizer": null, "activity_regularizer": null, "kernel_constraint": null, "bias_constraint": null}, "name": "dense_524", "inbound_nodes": [[["flatten_165", 0, 0, {}]]]}, {"class_name": "Dense", "config": {"name": "dense_527", "trainable": true, "dtype": "float32", "units": 50, "activation": "elu", "use_bias": true, "kernel_initializer": {"class_name": "GlorotUniform", "config": {"seed": null}}, "bias_initializer": {"class_name": "Zeros", "config": {}}, "kernel_regularizer": null, "bias_regularizer": null, "activity_regularizer": null, "kernel_constraint": null, "bias_constraint": null}, "name": "dense_527", "inbound_nodes": [[["flatten_166", 0, 0, {}]]]}, {"class_name": "Dense", "config": {"name": "dense_530", "trainable": true, "dtype": "float32", "units": 50, "activation": "elu", "use_bias": true, "kernel_initializer": {"class_name": "GlorotUniform", "config": {"seed": null}}, "bias_initializer": {"class_name": "Zeros", "config": {}}, "kernel_regularizer": null, "bias_regularizer": null, "activity_regularizer": null, "kernel_constraint": null, "bias_constraint": null}, "name": "dense_530", "inbound_nodes": [[["flatten_167", 0, 0, {}]]]}, {"class_name": "Dense", "config": {"name": "dense_533", "trainable": true, "dtype": "float32", "units": 50, "activation": "elu", "use_bias": true, "kernel_initializer": {"class_name": "GlorotUniform", "config": {"seed": null}}, "bias_initializer": {"class_name": "Zeros", "config": {}}, "kernel_regularizer": null, "bias_regularizer": null, "activity_regularizer": null, "kernel_constraint": null, "bias_constraint": null}, "name": "dense_533", "inbound_nodes": [[["flatten_168", 0, 0, {}]]]}, {"class_name": "Dense", "config": {"name": "dense_536", "trainable": true, "dtype": "float32", "units": 50, "activation": "elu", "use_bias": true, "kernel_initializer": {"class_name": "GlorotUniform", "config": {"seed": null}}, "bias_initializer": {"class_name": "Zeros", "config": {}}, "kernel_regularizer": null, "bias_regularizer": null, "activity_regularizer": null, "kernel_constraint": null, "bias_constraint": null}, "name": "dense_536", "inbound_nodes": [[["flatten_169", 0, 0, {}]]]}, {"class_name": "Dense", "config": {"name": "dense_539", "trainable": true, "dtype": "float32", "units": 50, "activation": "elu", "use_bias": true, "kernel_initializer": {"class_name": "GlorotUniform", "config": {"seed": null}}, "bias_initializer": {"class_name": "Zeros", "config": {}}, "kernel_regularizer": null, "bias_regularizer": null, "activity_regularizer": null, "kernel_constraint": null, "bias_constraint": null}, "name": "dense_539", "inbound_nodes": [[["flatten_170", 0, 0, {}]]]}, {"class_name": "Dense", "config": {"name": "dense_542", "trainable": true, "dtype": "float32", "units": 50, "activation": "elu", "use_bias": true, "kernel_initializer": {"class_name": "GlorotUniform", "config": {"seed": null}}, "bias_initializer": {"class_name": "Zeros", "config": {}}, "kernel_regularizer": null, "bias_regularizer": null, "activity_regularizer": null, "kernel_constraint": null, "bias_constraint": null}, "name": "dense_542", "inbound_nodes": [[["flatten_171", 0, 0, {}]]]}, {"class_name": "Dense", "config": {"name": "dense_545", "trainable": true, "dtype": "float32", "units": 50, "activation": "elu", "use_bias": true, "kernel_initializer": {"class_name": "GlorotUniform", "config": {"seed": null}}, "bias_initializer": {"class_name": "Zeros", "config": {}}, "kernel_regularizer": null, "bias_regularizer": null, "activity_regularizer": null, "kernel_constraint": null, "bias_constraint": null}, "name": "dense_545", "inbound_nodes": [[["flatten_172", 0, 0, {}]]]}, {"class_name": "Dense", "config": {"name": "dense_548", "trainable": true, "dtype": "float32", "units": 50, "activation": "elu", "use_bias": true, "kernel_initializer": {"class_name": "GlorotUniform", "config": {"seed": null}}, "bias_initializer": {"class_name": "Zeros", "config": {}}, "kernel_regularizer": null, "bias_regularizer": null, "activity_regularizer": null, "kernel_constraint": null, "bias_constraint": null}, "name": "dense_548", "inbound_nodes": [[["flatten_173", 0, 0, {}]]]}, {"class_name": "Dense", "config": {"name": "dense_551", "trainable": true, "dtype": "float32", "units": 50, "activation": "elu", "use_bias": true, "kernel_initializer": {"class_name": "GlorotUniform", "config": {"seed": null}}, "bias_initializer": {"class_name": "Zeros", "config": {}}, "kernel_regularizer": null, "bias_regularizer": null, "activity_regularizer": null, "kernel_constraint": null, "bias_constraint": null}, "name": "dense_551", "inbound_nodes": [[["flatten_174", 0, 0, {}]]]}, {"class_name": "Dense", "config": {"name": "dense_554", "trainable": true, "dtype": "float32", "units": 50, "activation": "elu", "use_bias": true, "kernel_initializer": {"class_name": "GlorotUniform", "config": {"seed": null}}, "bias_initializer": {"class_name": "Zeros", "config": {}}, "kernel_regularizer": null, "bias_regularizer": null, "activity_regularizer": null, "kernel_constraint": null, "bias_constraint": null}, "name": "dense_554", "inbound_nodes": [[["flatten_175", 0, 0, {}]]]}, {"class_name": "Dense", "config": {"name": "dense_557", "trainable": true, "dtype": "float32", "units": 50, "activation": "elu", "use_bias": true, "kernel_initializer": {"class_name": "GlorotUniform", "config": {"seed": null}}, "bias_initializer": {"class_name": "Zeros", "config": {}}, "kernel_regularizer": null, "bias_regularizer": null, "activity_regularizer": null, "kernel_constraint": null, "bias_constraint": null}, "name": "dense_557", "inbound_nodes": [[["flatten_176", 0, 0, {}]]]}, {"class_name": "Dense", "config": {"name": "dense_560", "trainable": true, "dtype": "float32", "units": 50, "activation": "elu", "use_bias": true, "kernel_initializer": {"class_name": "GlorotUniform", "config": {"seed": null}}, "bias_initializer": {"class_name": "Zeros", "config": {}}, "kernel_regularizer": null, "bias_regularizer": null, "activity_regularizer": null, "kernel_constraint": null, "bias_constraint": null}, "name": "dense_560", "inbound_nodes": [[["flatten_177", 0, 0, {}]]]}, {"class_name": "Dense", "config": {"name": "dense_563", "trainable": true, "dtype": "float32", "units": 50, "activation": "elu", "use_bias": true, "kernel_initializer": {"class_name": "GlorotUniform", "config": {"seed": null}}, "bias_initializer": {"class_name": "Zeros", "config": {}}, "kernel_regularizer": null, "bias_regularizer": null, "activity_regularizer": null, "kernel_constraint": null, "bias_constraint": null}, "name": "dense_563", "inbound_nodes": [[["flatten_178", 0, 0, {}]]]}, {"class_name": "Dense", "config": {"name": "dense_566", "trainable": true, "dtype": "float32", "units": 50, "activation": "elu", "use_bias": true, "kernel_initializer": {"class_name": "GlorotUniform", "config": {"seed": null}}, "bias_initializer": {"class_name": "Zeros", "config": {}}, "kernel_regularizer": null, "bias_regularizer": null, "activity_regularizer": null, "kernel_constraint": null, "bias_constraint": null}, "name": "dense_566", "inbound_nodes": [[["flatten_179", 0, 0, {}]]]}, {"class_name": "Concatenate", "config": {"name": "concatenate_189", "trainable": true, "dtype": "float32", "axis": -1}, "name": "concatenate_189", "inbound_nodes": [[["dense_515", 0, 0, {}], ["dense_518", 0, 0, {}], ["dense_521", 0, 0, {}], ["dense_524", 0, 0, {}], ["dense_527", 0, 0, {}], ["dense_530", 0, 0, {}], ["dense_533", 0, 0, {}], ["dense_536", 0, 0, {}], ["dense_539", 0, 0, {}], ["dense_542", 0, 0, {}], ["dense_545", 0, 0, {}], ["dense_548", 0, 0, {}], ["dense_551", 0, 0, {}], ["dense_554", 0, 0, {}], ["dense_557", 0, 0, {}], ["dense_560", 0, 0, {}], ["dense_563", 0, 0, {}], ["dense_566", 0, 0, {}]]]}, {"class_name": "Dropout", "config": {"name": "dropout_567", "trainable": true, "dtype": "float32", "rate": 0.4, "noise_shape": null, "seed": null}, "name": "dropout_567", "inbound_nodes": [[["concatenate_189", 0, 0, {}]]]}, {"class_name": "Dense", "config": {"name": "dense_567", "trainable": true, "dtype": "float32", "units": 100, "activation": "selu", "use_bias": true, "kernel_initializer": {"class_name": "GlorotUniform", "config": {"seed": null}}, "bias_initializer": {"class_name": "Zeros", "config": {}}, "kernel_regularizer": null, "bias_regularizer": null, "activity_regularizer": null, "kernel_constraint": null, "bias_constraint": null}, "name": "dense_567", "inbound_nodes": [[["dropout_567", 0, 0, {}]]]}, {"class_name": "Dropout", "config": {"name": "dropout_568", "trainable": true, "dtype": "float32", "rate": 0.4, "noise_shape": null, "seed": null}, "name": "dropout_568", "inbound_nodes": [[["dense_567", 0, 0, {}]]]}, {"class_name": "Dense", "config": {"name": "dense_568", "trainable": true, "dtype": "float32", "units": 20, "activation": "selu", "use_bias": true, "kernel_initializer": {"class_name": "GlorotUniform", "config": {"seed": null}}, "bias_initializer": {"class_name": "Zeros", "config": {}}, "kernel_regularizer": null, "bias_regularizer": null, "activity_regularizer": null, "kernel_constraint": null, "bias_constraint": null}, "name": "dense_568", "inbound_nodes": [[["dropout_568", 0, 0, {}]]]}, {"class_name": "Dropout", "config": {"name": "dropout_569", "trainable": true, "dtype": "float32", "rate": 0.4, "noise_shape": null, "seed": null}, "name": "dropout_569", "inbound_nodes": [[["dense_568", 0, 0, {}]]]}, {"class_name": "Dense", "config": {"name": "dense_569", "trainable": true, "dtype": "float32", "units": 4, "activation": "softmax", "use_bias": true, "kernel_initializer": {"class_name": "GlorotUniform", "config": {"seed": null}}, "bias_initializer": {"class_name": "Zeros", "config": {}}, "kernel_regularizer": null, "bias_regularizer": null, "activity_regularizer": null, "kernel_constraint": null, "bias_constraint": null}, "name": "dense_569", "inbound_nodes": [[["dropout_569", 0, 0, {}]]]}], "input_layers": [["input_163", 0, 0], ["input_164", 0, 0], ["input_165", 0, 0], ["input_166", 0, 0], ["input_167", 0, 0], ["input_168", 0, 0], ["input_169", 0, 0], ["input_170", 0, 0], ["input_171", 0, 0], ["input_172", 0, 0], ["input_173", 0, 0], ["input_174", 0, 0], ["input_175", 0, 0], ["input_176", 0, 0], ["input_177", 0, 0], ["input_178", 0, 0], ["input_179", 0, 0], ["input_180", 0, 0]], "output_layers": [["dense_569", 0, 0]]}, "keras_version": "2.11.0", "backend": "tensorflow"}